{
  "engine_path": "results\\models\\helmet_yolo11n_fp16_current.engine",
  "onnx_path": "results\\models\\helmet_yolo11n.onnx",
  "tensorrt_version": "11.1.0.106",
  "gpu": "NVIDIA GeForce RTX 4070",
  "precision_note": "current TensorRT build; explicit FP16 builder flag unavailable or disabled",
  "tensors": [
    {
      "name": "images",
      "mode": "input",
      "shape": [
        1,
        3,
        640,
        640
      ],
      "dtype": "DataType.FLOAT",
      "torch_dtype": "torch.float32"
    },
    {
      "name": "output0",
      "mode": "output",
      "shape": [
        1,
        5,
        8400
      ],
      "dtype": "DataType.FLOAT",
      "torch_dtype": "torch.float32"
    }
  ],
  "engine_inspector": {
    "format": "JSON",
    "data": {
      "Layers": [
        {
          "Name": "Reformatting CopyNode for Input Tensor 0 to /model.0/conv/Conv",
          "LayerType": "Reformat",
          "Inputs": [
            {
              "Name": "images",
              "Location": "Device",
              "Dimensions": [
                1,
                3,
                640,
                640
              ],
              "Datatype": "Float",
              "Format": "(Linear) Row major linear format"
            }
          ],
          "Outputs": [
            {
              "Name": "Reformatted Input Tensor 0 to /model.0/conv/Conv",
              "Location": "Device",
              "Dimensions": [
                1,
                3,
                640,
                640
              ],
              "Datatype": "Float",
              "Format": "(NHWC4) Channel major format where channel % 4 == 0"
            }
          ],
          "ParameterType": "Reformat",
          "Origin": "REFORMAT",
          "TacticValue": "0x00000000000003ea",
          "StreamId": 0,
          "Metadata": ""
        },
        {
          "Name": "/model.0/conv/Conv",
          "LayerType": "CaskConvolution",
          "Inputs": [
            {
              "Name": "Reformatted Input Tensor 0 to /model.0/conv/Conv",
              "Location": "Device",
              "Dimensions": [
                1,
                3,
                640,
                640
              ],
              "Datatype": "Float",
              "Format": "(NHWC4) Channel major format where channel % 4 == 0"
            }
          ],
          "Outputs": [
            {
              "Name": "/model.0/conv/Conv_output_0",
              "Location": "Device",
              "Dimensions": [
                1,
                16,
                320,
                320
              ],
              "Datatype": "Float",
              "Format": "(NHWC4) Channel major format where channel % 4 == 0"
            }
          ],
          "ParameterType": "Convolution",
          "Kernel": [
            3,
            3
          ],
          "PaddingMode": "kEXPLICIT_ROUND_DOWN",
          "PrePadding": [
            1,
            1
          ],
          "PostPadding": [
            1,
            1
          ],
          "Stride": [
            2,
            2
          ],
          "Dilation": [
            1,
            1
          ],
          "OutMaps": 16,
          "Groups": 1,
          "Weights": {
            "Type": "Float",
            "Count": 432
          },
          "Bias": {
            "Type": "Float",
            "Count": 16
          },
          "HasBias": 1,
          "HasReLU": 0,
          "HasSparseWeights": 0,
          "HasDynamicFilter": 0,
          "HasDynamicBias": 0,
          "HasResidual": 0,
          "ConvXAsActInputIdx": -1,
          "BiasAsActInputIdx": -1,
          "ResAsActInputIdx": -1,
          "Activation": "NONE",
          "TacticName": "sm80_xmma_fprop_implicit_gemm_indexed_wo_smem_f32f32_tf32f32_f32_nhwckrsc_nhwc_tilesize128x16x64_stage1_warpsize4x1x1_g1_tensor16x8x8",
          "TacticValue": "0x10383a0781d24dde",
          "StreamId": 0,
          "Metadata": "[ONNX Layer: /model.0/conv/Conv]"
        },
        {
          "Name": "Reformatting CopyNode for Input Tensor 0 to PWN(PWN(/model.0/act/Sigmoid), PWN(/model.0/act/Mul))",
          "LayerType": "NoOp",
          "Inputs": [
            {
              "Name": "/model.0/conv/Conv_output_0",
              "Location": "Device",
              "Dimensions": [
                1,
                16,
                320,
                320
              ],
              "Datatype": "Float",
              "Format": "(NHWC4) Channel major format where channel % 4 == 0"
            }
          ],
          "Outputs": [
            {
              "Name": "Reformatted Input Tensor 0 to PWN(PWN(/model.0/act/Sigmoid), PWN(/model.0/act/Mul))",
              "Location": "Device",
              "Dimensions": [
                1,
                16,
                320,
                320
              ],
              "Datatype": "Float",
              "Format": "(NHWC) Channel major format"
            }
          ],
          "TacticValue": "0x0000000000000000",
          "StreamId": 0,
          "Metadata": ""
        },
        {
          "Name": "__myl_MoveNegExpAddDivMul_myl3_0",
          "LayerType": "kgen",
          "Inputs": [
            {
              "Name": "Reformatted Input Tensor 0 to PWN(PWN(/model.0/act/Sigmoid), PWN(/model.0/act/Mul))",
              "Dimensions": [
                1,
                16,
                320,
                320
              ],
              "Strides": [
                1638400,
                1,
                5120,
                16
              ],
              "StrideOrder": [
                3,
                0,
                2,
                1
              ],
              "Datatype": "Float",
              "Format": "(NHWC) Channel major format"
            }
          ],
          "Constants": [],
          "Outputs": [
            {
              "Name": "/model.0/act/Mul_output_0",
              "Dimensions": [
                1,
                16,
                320,
                320
              ],
              "Strides": [
                1638400,
                1,
                5120,
                16
              ],
              "StrideOrder": [
                3,
                0,
                2,
                1
              ],
              "Datatype": "Float",
              "Format": "(NHWC) Channel major format"
            }
          ],
          "TacticName": "__myl_MoveNegExpAddDivMul_0x80291acf44241e68db9d568131514d15",
          "StreamId": 0,
          "Metadata": "[ONNX Layer: /model.0/act/Sigmoid]\u001e[ONNX Layer: /model.0/act/Mul]"
        },
        {
          "Name": "Reformatting CopyNode for Input Tensor 0 to /model.1/conv/Conv",
          "LayerType": "NoOp",
          "Inputs": [
            {
              "Name": "/model.0/act/Mul_output_0",
              "Location": "Device",
              "Dimensions": [
                1,
                16,
                320,
                320
              ],
              "Datatype": "Float",
              "Format": "(NHWC) Channel major format"
            }
          ],
          "Outputs": [
            {
              "Name": "Reformatted Input Tensor 0 to /model.1/conv/Conv",
              "Location": "Device",
              "Dimensions": [
                1,
                16,
                320,
                320
              ],
              "Datatype": "Float",
              "Format": "(NHWC4) Channel major format where channel % 4 == 0"
            }
          ],
          "TacticValue": "0x0000000000000000",
          "StreamId": 0,
          "Metadata": ""
        },
        {
          "Name": "/model.1/conv/Conv",
          "LayerType": "CaskConvolution",
          "Inputs": [
            {
              "Name": "Reformatted Input Tensor 0 to /model.1/conv/Conv",
              "Location": "Device",
              "Dimensions": [
                1,
                16,
                320,
                320
              ],
              "Datatype": "Float",
              "Format": "(NHWC4) Channel major format where channel % 4 == 0"
            }
          ],
          "Outputs": [
            {
              "Name": "/model.1/conv/Conv_output_0",
              "Location": "Device",
              "Dimensions": [
                1,
                32,
                160,
                160
              ],
              "Datatype": "Float",
              "Format": "(NHWC4) Channel major format where channel % 4 == 0"
            }
          ],
          "ParameterType": "Convolution",
          "Kernel": [
            3,
            3
          ],
          "PaddingMode": "kEXPLICIT_ROUND_DOWN",
          "PrePadding": [
            1,
            1
          ],
          "PostPadding": [
            1,
            1
          ],
          "Stride": [
            2,
            2
          ],
          "Dilation": [
            1,
            1
          ],
          "OutMaps": 32,
          "Groups": 1,
          "Weights": {
            "Type": "Float",
            "Count": 4608
          },
          "Bias": {
            "Type": "Float",
            "Count": 32
          },
          "HasBias": 1,
          "HasReLU": 0,
          "HasSparseWeights": 0,
          "HasDynamicFilter": 0,
          "HasDynamicBias": 0,
          "HasResidual": 0,
          "ConvXAsActInputIdx": -1,
          "BiasAsActInputIdx": -1,
          "ResAsActInputIdx": -1,
          "Activation": "NONE",
          "TacticName": "sm80_xmma_fprop_implicit_gemm_indexed_wo_smem_f32f32_tf32f32_f32_nhwckrsc_nhwc_tilesize128x32x64_stage1_warpsize4x1x1_g1_tensor16x8x8_alignc8",
          "TacticValue": "0x3a8712b17741b582",
          "StreamId": 0,
          "Metadata": "[ONNX Layer: /model.1/conv/Conv]"
        },
        {
          "Name": "Reformatting CopyNode for Input Tensor 0 to PWN(PWN(/model.1/act/Sigmoid), PWN(/model.1/act/Mul))",
          "LayerType": "NoOp",
          "Inputs": [
            {
              "Name": "/model.1/conv/Conv_output_0",
              "Location": "Device",
              "Dimensions": [
                1,
                32,
                160,
                160
              ],
              "Datatype": "Float",
              "Format": "(NHWC4) Channel major format where channel % 4 == 0"
            }
          ],
          "Outputs": [
            {
              "Name": "Reformatted Input Tensor 0 to PWN(PWN(/model.1/act/Sigmoid), PWN(/model.1/act/Mul))",
              "Location": "Device",
              "Dimensions": [
                1,
                32,
                160,
                160
              ],
              "Datatype": "Float",
              "Format": "(NHWC) Channel major format"
            }
          ],
          "TacticValue": "0x0000000000000000",
          "StreamId": 0,
          "Metadata": ""
        },
        {
          "Name": "__myl_MoveNegExpAddDivMul_myl7_0",
          "LayerType": "kgen",
          "Inputs": [
            {
              "Name": "Reformatted Input Tensor 0 to PWN(PWN(/model.1/act/Sigmoid), PWN(/model.1/act/Mul))",
              "Dimensions": [
                1,
                32,
                160,
                160
              ],
              "Strides": [
                819200,
                1,
                5120,
                32
              ],
              "StrideOrder": [
                3,
                0,
                2,
                1
              ],
              "Datatype": "Float",
              "Format": "(NHWC) Channel major format"
            }
          ],
          "Constants": [],
          "Outputs": [
            {
              "Name": "/model.1/act/Mul_output_0",
              "Dimensions": [
                1,
                32,
                160,
                160
              ],
              "Strides": [
                819200,
                1,
                5120,
                32
              ],
              "StrideOrder": [
                3,
                0,
                2,
                1
              ],
              "Datatype": "Float",
              "Format": "(NHWC) Channel major format"
            }
          ],
          "TacticName": "__myl_MoveNegExpAddDivMul_0xdb0ac0b7dc16ee9ccff9fe8b5423af86",
          "StreamId": 0,
          "Metadata": "[ONNX Layer: /model.1/act/Sigmoid]\u001e[ONNX Layer: /model.1/act/Mul]"
        },
        {
          "Name": "Reformatting CopyNode for Input Tensor 0 to /model.2/cv1/conv/Conv",
          "LayerType": "NoOp",
          "Inputs": [
            {
              "Name": "/model.1/act/Mul_output_0",
              "Location": "Device",
              "Dimensions": [
                1,
                32,
                160,
                160
              ],
              "Datatype": "Float",
              "Format": "(NHWC) Channel major format"
            }
          ],
          "Outputs": [
            {
              "Name": "Reformatted Input Tensor 0 to /model.2/cv1/conv/Conv",
              "Location": "Device",
              "Dimensions": [
                1,
                32,
                160,
                160
              ],
              "Datatype": "Float",
              "Format": "(NHWC4) Channel major format where channel % 4 == 0"
            }
          ],
          "TacticValue": "0x0000000000000000",
          "StreamId": 0,
          "Metadata": ""
        },
        {
          "Name": "/model.2/cv1/conv/Conv",
          "LayerType": "CaskConvolution",
          "Inputs": [
            {
              "Name": "Reformatted Input Tensor 0 to /model.2/cv1/conv/Conv",
              "Location": "Device",
              "Dimensions": [
                1,
                32,
                160,
                160
              ],
              "Datatype": "Float",
              "Format": "(NHWC4) Channel major format where channel % 4 == 0"
            }
          ],
          "Outputs": [
            {
              "Name": "/model.2/cv1/conv/Conv_output_0",
              "Location": "Device",
              "Dimensions": [
                1,
                32,
                160,
                160
              ],
              "Datatype": "Float",
              "Format": "(NHWC4) Channel major format where channel % 4 == 0"
            }
          ],
          "ParameterType": "Convolution",
          "Kernel": [
            1,
            1
          ],
          "PaddingMode": "kEXPLICIT_ROUND_DOWN",
          "PrePadding": [
            0,
            0
          ],
          "PostPadding": [
            0,
            0
          ],
          "Stride": [
            1,
            1
          ],
          "Dilation": [
            1,
            1
          ],
          "OutMaps": 32,
          "Groups": 1,
          "Weights": {
            "Type": "Float",
            "Count": 1024
          },
          "Bias": {
            "Type": "Float",
            "Count": 32
          },
          "HasBias": 1,
          "HasReLU": 0,
          "HasSparseWeights": 0,
          "HasDynamicFilter": 0,
          "HasDynamicBias": 0,
          "HasResidual": 0,
          "ConvXAsActInputIdx": -1,
          "BiasAsActInputIdx": -1,
          "ResAsActInputIdx": -1,
          "Activation": "NONE",
          "TacticName": "sm80_xmma_fprop_implicit_gemm_indexed_wo_smem_f32f32_tf32f32_f32_nhwckrsc_nhwc_tilesize128x16x64_stage1_warpsize4x1x1_g1_tensor16x8x8",
          "TacticValue": "0x10383a0781d24dde",
          "StreamId": 0,
          "Metadata": "[ONNX Layer: /model.2/cv1/conv/Conv]"
        },
        {
          "Name": "Reformatting CopyNode for Input Tensor 0 to PWN(PWN(/model.2/cv1/act/Sigmoid), PWN(/model.2/cv1/act/Mul))",
          "LayerType": "NoOp",
          "Inputs": [
            {
              "Name": "/model.2/cv1/conv/Conv_output_0",
              "Location": "Device",
              "Dimensions": [
                1,
                32,
                160,
                160
              ],
              "Datatype": "Float",
              "Format": "(NHWC4) Channel major format where channel % 4 == 0"
            }
          ],
          "Outputs": [
            {
              "Name": "Reformatted Input Tensor 0 to PWN(PWN(/model.2/cv1/act/Sigmoid), PWN(/model.2/cv1/act/Mul))",
              "Location": "Device",
              "Dimensions": [
                1,
                32,
                160,
                160
              ],
              "Datatype": "Float",
              "Format": "(NHWC) Channel major format"
            }
          ],
          "TacticValue": "0x0000000000000000",
          "StreamId": 0,
          "Metadata": ""
        },
        {
          "Name": "__myl_MoveNegExpAddDivMul_myl11_0",
          "LayerType": "kgen",
          "Inputs": [
            {
              "Name": "Reformatted Input Tensor 0 to PWN(PWN(/model.2/cv1/act/Sigmoid), PWN(/model.2/cv1/act/Mul))",
              "Dimensions": [
                1,
                32,
                160,
                160
              ],
              "Strides": [
                819200,
                1,
                5120,
                32
              ],
              "StrideOrder": [
                3,
                0,
                2,
                1
              ],
              "Datatype": "Float",
              "Format": "(NHWC) Channel major format"
            }
          ],
          "Constants": [],
          "Outputs": [
            {
              "Name": "Reformatted Output Tensor 0 to PWN(PWN(/model.2/cv1/act/Sigmoid), PWN(/model.2/cv1/act/Mul))",
              "Dimensions": [
                1,
                32,
                160,
                160
              ],
              "Strides": [
                819200,
                1,
                5120,
                32
              ],
              "StrideOrder": [
                3,
                0,
                2,
                1
              ],
              "Datatype": "Float",
              "Format": "(NHWC) Channel major format"
            }
          ],
          "TacticName": "__myl_MoveNegExpAddDivMul_0xdb0ac0b7dc16ee9ccff9fe8b5423af86",
          "StreamId": 0,
          "Metadata": "[ONNX Layer: /model.2/cv1/act/Sigmoid]\u001e[ONNX Layer: /model.2/cv1/act/Mul]"
        },
        {
          "Name": "Reformatting CopyNode for Output Tensor 0 to PWN(PWN(/model.2/cv1/act/Sigmoid), PWN(/model.2/cv1/act/Mul))",
          "LayerType": "NoOp",
          "Inputs": [
            {
              "Name": "Reformatted Output Tensor 0 to PWN(PWN(/model.2/cv1/act/Sigmoid), PWN(/model.2/cv1/act/Mul))",
              "Location": "Device",
              "Dimensions": [
                1,
                32,
                160,
                160
              ],
              "Datatype": "Float",
              "Format": "(NHWC) Channel major format"
            }
          ],
          "Outputs": [
            {
              "Name": "/model.2/cv1/act/Mul_output_0",
              "Location": "Device",
              "Dimensions": [
                1,
                32,
                160,
                160
              ],
              "Datatype": "Float",
              "Format": "(NHWC4) Channel major format where channel % 4 == 0"
            }
          ],
          "TacticValue": "0x0000000000000000",
          "StreamId": 0,
          "Metadata": ""
        },
        {
          "Name": "/model.2/m.0/cv1/conv/Conv",
          "LayerType": "CaskConvolution",
          "Inputs": [
            {
              "Name": "/model.2/cv1/act/Mul_output_0",
              "Location": "Device",
              "Dimensions": [
                1,
                16,
                160,
                160
              ],
              "Datatype": "Float",
              "Format": "(NHWC4) Channel major format where channel % 4 == 0"
            }
          ],
          "Outputs": [
            {
              "Name": "/model.2/m.0/cv1/conv/Conv_output_0",
              "Location": "Device",
              "Dimensions": [
                1,
                8,
                160,
                160
              ],
              "Datatype": "Float",
              "Format": "(NHWC4) Channel major format where channel % 4 == 0"
            }
          ],
          "ParameterType": "Convolution",
          "Kernel": [
            3,
            3
          ],
          "PaddingMode": "kEXPLICIT_ROUND_DOWN",
          "PrePadding": [
            1,
            1
          ],
          "PostPadding": [
            1,
            1
          ],
          "Stride": [
            1,
            1
          ],
          "Dilation": [
            1,
            1
          ],
          "OutMaps": 8,
          "Groups": 1,
          "Weights": {
            "Type": "Float",
            "Count": 1152
          },
          "Bias": {
            "Type": "Float",
            "Count": 8
          },
          "HasBias": 1,
          "HasReLU": 0,
          "HasSparseWeights": 0,
          "HasDynamicFilter": 0,
          "HasDynamicBias": 0,
          "HasResidual": 0,
          "ConvXAsActInputIdx": -1,
          "BiasAsActInputIdx": -1,
          "ResAsActInputIdx": -1,
          "Activation": "NONE",
          "TacticName": "sm80_xmma_fprop_implicit_gemm_indexed_wo_smem_f32f32_tf32f32_f32_nhwckrsc_nhwc_tilesize128x16x64_stage1_warpsize4x1x1_g1_tensor16x8x8_alignc4",
          "TacticValue": "0xcc46f0f5cee60677",
          "StreamId": 0,
          "Metadata": "[ONNX Layer: /model.2/m.0/cv1/conv/Conv]"
        },
        {
          "Name": "Reformatting CopyNode for Input Tensor 0 to PWN(PWN(/model.2/m.0/cv1/act/Sigmoid), PWN(/model.2/m.0/cv1/act/Mul))",
          "LayerType": "NoOp",
          "Inputs": [
            {
              "Name": "/model.2/m.0/cv1/conv/Conv_output_0",
              "Location": "Device",
              "Dimensions": [
                1,
                8,
                160,
                160
              ],
              "Datatype": "Float",
              "Format": "(NHWC4) Channel major format where channel % 4 == 0"
            }
          ],
          "Outputs": [
            {
              "Name": "Reformatted Input Tensor 0 to PWN(PWN(/model.2/m.0/cv1/act/Sigmoid), PWN(/model.2/m.0/cv1/act/Mul))",
              "Location": "Device",
              "Dimensions": [
                1,
                8,
                160,
                160
              ],
              "Datatype": "Float",
              "Format": "(NHWC) Channel major format"
            }
          ],
          "TacticValue": "0x0000000000000000",
          "StreamId": 0,
          "Metadata": ""
        },
        {
          "Name": "__myl_MoveNegExpAddDivMul_myl15_0",
          "LayerType": "kgen",
          "Inputs": [
            {
              "Name": "Reformatted Input Tensor 0 to PWN(PWN(/model.2/m.0/cv1/act/Sigmoid), PWN(/model.2/m.0/cv1/act/Mul))",
              "Dimensions": [
                1,
                8,
                160,
                160
              ],
              "Strides": [
                204800,
                1,
                1280,
                8
              ],
              "StrideOrder": [
                3,
                0,
                2,
                1
              ],
              "Datatype": "Float",
              "Format": "(NHWC) Channel major format"
            }
          ],
          "Constants": [],
          "Outputs": [
            {
              "Name": "/model.2/m.0/cv1/act/Mul_output_0",
              "Dimensions": [
                1,
                8,
                160,
                160
              ],
              "Strides": [
                204800,
                1,
                1280,
                8
              ],
              "StrideOrder": [
                3,
                0,
                2,
                1
              ],
              "Datatype": "Float",
              "Format": "(NHWC) Channel major format"
            }
          ],
          "TacticName": "__myl_MoveNegExpAddDivMul_0xca1a4e6ea6c73d37885c68ea63b62f6e",
          "StreamId": 0,
          "Metadata": "[ONNX Layer: /model.2/m.0/cv1/act/Sigmoid]\u001e[ONNX Layer: /model.2/m.0/cv1/act/Mul]"
        },
        {
          "Name": "Reformatting CopyNode for Input Tensor 0 to /model.2/m.0/cv2/conv/Conv",
          "LayerType": "NoOp",
          "Inputs": [
            {
              "Name": "/model.2/m.0/cv1/act/Mul_output_0",
              "Location": "Device",
              "Dimensions": [
                1,
                8,
                160,
                160
              ],
              "Datatype": "Float",
              "Format": "(NHWC) Channel major format"
            }
          ],
          "Outputs": [
            {
              "Name": "Reformatted Input Tensor 0 to /model.2/m.0/cv2/conv/Conv",
              "Location": "Device",
              "Dimensions": [
                1,
                8,
                160,
                160
              ],
              "Datatype": "Float",
              "Format": "(NHWC4) Channel major format where channel % 4 == 0"
            }
          ],
          "TacticValue": "0x0000000000000000",
          "StreamId": 0,
          "Metadata": ""
        },
        {
          "Name": "/model.2/m.0/cv2/conv/Conv",
          "LayerType": "CaskConvolution",
          "Inputs": [
            {
              "Name": "Reformatted Input Tensor 0 to /model.2/m.0/cv2/conv/Conv",
              "Location": "Device",
              "Dimensions": [
                1,
                8,
                160,
                160
              ],
              "Datatype": "Float",
              "Format": "(NHWC4) Channel major format where channel % 4 == 0"
            }
          ],
          "Outputs": [
            {
              "Name": "/model.2/m.0/cv2/conv/Conv_output_0",
              "Location": "Device",
              "Dimensions": [
                1,
                16,
                160,
                160
              ],
              "Datatype": "Float",
              "Format": "(NHWC4) Channel major format where channel % 4 == 0"
            }
          ],
          "ParameterType": "Convolution",
          "Kernel": [
            3,
            3
          ],
          "PaddingMode": "kEXPLICIT_ROUND_DOWN",
          "PrePadding": [
            1,
            1
          ],
          "PostPadding": [
            1,
            1
          ],
          "Stride": [
            1,
            1
          ],
          "Dilation": [
            1,
            1
          ],
          "OutMaps": 16,
          "Groups": 1,
          "Weights": {
            "Type": "Float",
            "Count": 1152
          },
          "Bias": {
            "Type": "Float",
            "Count": 16
          },
          "HasBias": 1,
          "HasReLU": 0,
          "HasSparseWeights": 0,
          "HasDynamicFilter": 0,
          "HasDynamicBias": 0,
          "HasResidual": 0,
          "ConvXAsActInputIdx": -1,
          "BiasAsActInputIdx": -1,
          "ResAsActInputIdx": -1,
          "Activation": "NONE",
          "TacticName": "sm80_xmma_fprop_implicit_gemm_indexed_wo_smem_f32f32_tf32f32_f32_nhwckrsc_nhwc_tilesize128x16x32_stage1_warpsize4x1x1_g1_tensor16x8x8_alignc8",
          "TacticValue": "0x96467934a22da27d",
          "StreamId": 0,
          "Metadata": "[ONNX Layer: /model.2/m.0/cv2/conv/Conv]"
        },
        {
          "Name": "__myl_MoveNegExpAddDivMulAdd_myl18_0",
          "LayerType": "kgen",
          "Inputs": [
            {
              "Name": "/model.2/cv1/act/Mul_output_0",
              "Dimensions": [
                1,
                16,
                160,
                160
              ],
              "Strides": [
                819200,
                1,
                5120,
                32
              ],
              "StrideOrder": [
                3,
                0,
                2,
                1
              ],
              "Datatype": "Float",
              "Format": "(NHWC) Channel major format"
            },
            {
              "Name": "/model.2/m.0/cv2/conv/Conv_output_0",
              "Dimensions": [
                1,
                16,
                160,
                160
              ],
              "Strides": [
                409600,
                1,
                2560,
                16
              ],
              "StrideOrder": [
                3,
                0,
                2,
                1
              ],
              "Datatype": "Float",
              "Format": "(NHWC) Channel major format"
            }
          ],
          "Constants": [],
          "Outputs": [
            {
              "Name": "/model.2/Concat_output_0",
              "Dimensions": [
                1,
                16,
                160,
                160
              ],
              "Strides": [
                1228800,
                1,
                7680,
                48
              ],
              "StrideOrder": [
                3,
                0,
                2,
                1
              ],
              "Datatype": "Float",
              "Format": "(NHWC) Channel major format"
            }
          ],
          "TacticName": "__myl_MoveNegExpAddDivMulAdd_0xb92087b4b67a0828db8dc4de04579dde",
          "StreamId": 0,
          "Metadata": "[ONNX Layer: /model.2/m.0/cv2/act/Sigmoid]\u001e[ONNX Layer: /model.2/m.0/cv2/act/Mul]\u001e[ONNX Layer: /model.2/m.0/Add]"
        },
        {
          "Name": "/model.2/Split_output_0 copy",
          "LayerType": "Reformat",
          "Inputs": [
            {
              "Name": "/model.2/cv1/act/Mul_output_0",
              "Location": "Device",
              "Dimensions": [
                1,
                16,
                160,
                160
              ],
              "Datatype": "Float",
              "Format": "(NHWC4) Channel major format where channel % 4 == 0"
            }
          ],
          "Outputs": [
            {
              "Name": "/model.2/Concat_output_0",
              "Location": "Device",
              "Dimensions": [
                1,
                16,
                160,
                160
              ],
              "Datatype": "Float",
              "Format": "(NHWC4) Channel major format where channel % 4 == 0"
            }
          ],
          "ParameterType": "Reformat",
          "Origin": "CONCAT",
          "TacticValue": "0x00000000000003e8",
          "StreamId": 0,
          "Metadata": "[ONNX Layer: /model.2/Concat]"
        },
        {
          "Name": "/model.2/Split_output_1 copy",
          "LayerType": "Reformat",
          "Inputs": [
            {
              "Name": "/model.2/cv1/act/Mul_output_0",
              "Location": "Device",
              "Dimensions": [
                1,
                16,
                160,
                160
              ],
              "Datatype": "Float",
              "Format": "(NHWC4) Channel major format where channel % 4 == 0"
            }
          ],
          "Outputs": [
            {
              "Name": "/model.2/Concat_output_0",
              "Location": "Device",
              "Dimensions": [
                1,
                16,
                160,
                160
              ],
              "Datatype": "Float",
              "Format": "(NHWC4) Channel major format where channel % 4 == 0"
            }
          ],
          "ParameterType": "Reformat",
          "Origin": "CONCAT",
          "TacticValue": "0x00000000000003e8",
          "StreamId": 0,
          "Metadata": "[ONNX Layer: /model.2/Concat]"
        },
        {
          "Name": "/model.2/cv2/conv/Conv",
          "LayerType": "CaskConvolution",
          "Inputs": [
            {
              "Name": "/model.2/Concat_output_0",
              "Location": "Device",
              "Dimensions": [
                1,
                48,
                160,
                160
              ],
              "Datatype": "Float",
              "Format": "(NHWC4) Channel major format where channel % 4 == 0"
            }
          ],
          "Outputs": [
            {
              "Name": "/model.2/cv2/conv/Conv_output_0",
              "Location": "Device",
              "Dimensions": [
                1,
                64,
                160,
                160
              ],
              "Datatype": "Float",
              "Format": "(NHWC4) Channel major format where channel % 4 == 0"
            }
          ],
          "ParameterType": "Convolution",
          "Kernel": [
            1,
            1
          ],
          "PaddingMode": "kEXPLICIT_ROUND_DOWN",
          "PrePadding": [
            0,
            0
          ],
          "PostPadding": [
            0,
            0
          ],
          "Stride": [
            1,
            1
          ],
          "Dilation": [
            1,
            1
          ],
          "OutMaps": 64,
          "Groups": 1,
          "Weights": {
            "Type": "Float",
            "Count": 3072
          },
          "Bias": {
            "Type": "Float",
            "Count": 64
          },
          "HasBias": 1,
          "HasReLU": 0,
          "HasSparseWeights": 0,
          "HasDynamicFilter": 0,
          "HasDynamicBias": 0,
          "HasResidual": 0,
          "ConvXAsActInputIdx": -1,
          "BiasAsActInputIdx": -1,
          "ResAsActInputIdx": -1,
          "Activation": "NONE",
          "TacticName": "sm80_xmma_fprop_implicit_gemm_indexed_wo_smem_f32f32_tf32f32_f32_nhwckrsc_nhwc_tilesize128x32x16_stage1_warpsize4x1x1_g1_tensor16x8x8",
          "TacticValue": "0x9cb304e2edbc1221",
          "StreamId": 0,
          "Metadata": "[ONNX Layer: /model.2/cv2/conv/Conv]"
        },
        {
          "Name": "Reformatting CopyNode for Input Tensor 0 to PWN(PWN(/model.2/cv2/act/Sigmoid), PWN(/model.2/cv2/act/Mul))",
          "LayerType": "NoOp",
          "Inputs": [
            {
              "Name": "/model.2/cv2/conv/Conv_output_0",
              "Location": "Device",
              "Dimensions": [
                1,
                64,
                160,
                160
              ],
              "Datatype": "Float",
              "Format": "(NHWC4) Channel major format where channel % 4 == 0"
            }
          ],
          "Outputs": [
            {
              "Name": "Reformatted Input Tensor 0 to PWN(PWN(/model.2/cv2/act/Sigmoid), PWN(/model.2/cv2/act/Mul))",
              "Location": "Device",
              "Dimensions": [
                1,
                64,
                160,
                160
              ],
              "Datatype": "Float",
              "Format": "(NHWC) Channel major format"
            }
          ],
          "TacticValue": "0x0000000000000000",
          "StreamId": 0,
          "Metadata": ""
        },
        {
          "Name": "__myl_MoveNegExpAddDivMul_myl23_0",
          "LayerType": "kgen",
          "Inputs": [
            {
              "Name": "Reformatted Input Tensor 0 to PWN(PWN(/model.2/cv2/act/Sigmoid), PWN(/model.2/cv2/act/Mul))",
              "Dimensions": [
                1,
                64,
                160,
                160
              ],
              "Strides": [
                1638400,
                1,
                10240,
                64
              ],
              "StrideOrder": [
                3,
                0,
                2,
                1
              ],
              "Datatype": "Float",
              "Format": "(NHWC) Channel major format"
            }
          ],
          "Constants": [],
          "Outputs": [
            {
              "Name": "/model.2/cv2/act/Mul_output_0",
              "Dimensions": [
                1,
                64,
                160,
                160
              ],
              "Strides": [
                1638400,
                1,
                10240,
                64
              ],
              "StrideOrder": [
                3,
                0,
                2,
                1
              ],
              "Datatype": "Float",
              "Format": "(NHWC) Channel major format"
            }
          ],
          "TacticName": "__myl_MoveNegExpAddDivMul_0x54165b987fdc32b7d5b51c8bca7b34e7",
          "StreamId": 0,
          "Metadata": "[ONNX Layer: /model.2/cv2/act/Sigmoid]\u001e[ONNX Layer: /model.2/cv2/act/Mul]"
        },
        {
          "Name": "Reformatting CopyNode for Input Tensor 0 to /model.3/conv/Conv",
          "LayerType": "NoOp",
          "Inputs": [
            {
              "Name": "/model.2/cv2/act/Mul_output_0",
              "Location": "Device",
              "Dimensions": [
                1,
                64,
                160,
                160
              ],
              "Datatype": "Float",
              "Format": "(NHWC) Channel major format"
            }
          ],
          "Outputs": [
            {
              "Name": "Reformatted Input Tensor 0 to /model.3/conv/Conv",
              "Location": "Device",
              "Dimensions": [
                1,
                64,
                160,
                160
              ],
              "Datatype": "Float",
              "Format": "(NHWC4) Channel major format where channel % 4 == 0"
            }
          ],
          "TacticValue": "0x0000000000000000",
          "StreamId": 0,
          "Metadata": ""
        },
        {
          "Name": "/model.3/conv/Conv",
          "LayerType": "CaskConvolution",
          "Inputs": [
            {
              "Name": "Reformatted Input Tensor 0 to /model.3/conv/Conv",
              "Location": "Device",
              "Dimensions": [
                1,
                64,
                160,
                160
              ],
              "Datatype": "Float",
              "Format": "(NHWC4) Channel major format where channel % 4 == 0"
            }
          ],
          "Outputs": [
            {
              "Name": "/model.3/conv/Conv_output_0",
              "Location": "Device",
              "Dimensions": [
                1,
                64,
                80,
                80
              ],
              "Datatype": "Float",
              "Format": "(NHWC4) Channel major format where channel % 4 == 0"
            }
          ],
          "ParameterType": "Convolution",
          "Kernel": [
            3,
            3
          ],
          "PaddingMode": "kEXPLICIT_ROUND_DOWN",
          "PrePadding": [
            1,
            1
          ],
          "PostPadding": [
            1,
            1
          ],
          "Stride": [
            2,
            2
          ],
          "Dilation": [
            1,
            1
          ],
          "OutMaps": 64,
          "Groups": 1,
          "Weights": {
            "Type": "Float",
            "Count": 36864
          },
          "Bias": {
            "Type": "Float",
            "Count": 64
          },
          "HasBias": 1,
          "HasReLU": 0,
          "HasSparseWeights": 0,
          "HasDynamicFilter": 0,
          "HasDynamicBias": 0,
          "HasResidual": 0,
          "ConvXAsActInputIdx": -1,
          "BiasAsActInputIdx": -1,
          "ResAsActInputIdx": -1,
          "Activation": "NONE",
          "TacticName": "sm80_xmma_fprop_implicit_gemm_indexed_wo_smem_f32f32_tf32f32_f32_nhwckrsc_nhwc_tilesize128x32x64_stage1_warpsize4x1x1_g1_tensor16x8x8_alignc8",
          "TacticValue": "0x3a8712b17741b582",
          "StreamId": 0,
          "Metadata": "[ONNX Layer: /model.3/conv/Conv]"
        },
        {
          "Name": "__myl_MoveNegExpAddDivMul_myl26_0",
          "LayerType": "kgen",
          "Inputs": [
            {
              "Name": "/model.3/conv/Conv_output_0",
              "Dimensions": [
                1,
                64,
                80,
                80
              ],
              "Strides": [
                409600,
                1,
                5120,
                64
              ],
              "StrideOrder": [
                3,
                0,
                2,
                1
              ],
              "Datatype": "Float",
              "Format": "(NHWC) Channel major format"
            }
          ],
          "Constants": [],
          "Outputs": [
            {
              "Name": "/model.3/act/Mul_output_0",
              "Dimensions": [
                1,
                64,
                80,
                80
              ],
              "Strides": [
                409600,
                1,
                5120,
                64
              ],
              "StrideOrder": [
                3,
                0,
                2,
                1
              ],
              "Datatype": "Float",
              "Format": "(NHWC) Channel major format"
            }
          ],
          "TacticName": "__myl_MoveNegExpAddDivMul_0xe308c6952e3e127e81f42eb65f61547d",
          "StreamId": 0,
          "Metadata": "[ONNX Layer: /model.3/act/Sigmoid]\u001e[ONNX Layer: /model.3/act/Mul]"
        },
        {
          "Name": "/model.4/cv1/conv/Conv",
          "LayerType": "CaskConvolution",
          "Inputs": [
            {
              "Name": "/model.3/act/Mul_output_0",
              "Location": "Device",
              "Dimensions": [
                1,
                64,
                80,
                80
              ],
              "Datatype": "Float",
              "Format": "(NHWC4) Channel major format where channel % 4 == 0"
            }
          ],
          "Outputs": [
            {
              "Name": "/model.4/cv1/conv/Conv_output_0",
              "Location": "Device",
              "Dimensions": [
                1,
                64,
                80,
                80
              ],
              "Datatype": "Float",
              "Format": "(NHWC4) Channel major format where channel % 4 == 0"
            }
          ],
          "ParameterType": "Convolution",
          "Kernel": [
            1,
            1
          ],
          "PaddingMode": "kEXPLICIT_ROUND_DOWN",
          "PrePadding": [
            0,
            0
          ],
          "PostPadding": [
            0,
            0
          ],
          "Stride": [
            1,
            1
          ],
          "Dilation": [
            1,
            1
          ],
          "OutMaps": 64,
          "Groups": 1,
          "Weights": {
            "Type": "Float",
            "Count": 4096
          },
          "Bias": {
            "Type": "Float",
            "Count": 64
          },
          "HasBias": 1,
          "HasReLU": 0,
          "HasSparseWeights": 0,
          "HasDynamicFilter": 0,
          "HasDynamicBias": 0,
          "HasResidual": 0,
          "ConvXAsActInputIdx": -1,
          "BiasAsActInputIdx": -1,
          "ResAsActInputIdx": -1,
          "Activation": "NONE",
          "TacticName": "sm80_xmma_fprop_implicit_gemm_indexed_wo_smem_f32f32_tf32f32_f32_nhwckrsc_nhwc_tilesize128x32x64_stage1_warpsize4x1x1_g1_tensor16x8x8_alignc8",
          "TacticValue": "0x3a8712b17741b582",
          "StreamId": 0,
          "Metadata": "[ONNX Layer: /model.4/cv1/conv/Conv]"
        },
        {
          "Name": "__myl_MoveNegExpAddDivMul_myl28_0",
          "LayerType": "kgen",
          "Inputs": [
            {
              "Name": "/model.4/cv1/conv/Conv_output_0",
              "Dimensions": [
                1,
                64,
                80,
                80
              ],
              "Strides": [
                409600,
                1,
                5120,
                64
              ],
              "StrideOrder": [
                3,
                0,
                2,
                1
              ],
              "Datatype": "Float",
              "Format": "(NHWC) Channel major format"
            }
          ],
          "Constants": [],
          "Outputs": [
            {
              "Name": "/model.4/cv1/act/Mul_output_0",
              "Dimensions": [
                1,
                64,
                80,
                80
              ],
              "Strides": [
                409600,
                1,
                5120,
                64
              ],
              "StrideOrder": [
                3,
                0,
                2,
                1
              ],
              "Datatype": "Float",
              "Format": "(NHWC) Channel major format"
            }
          ],
          "TacticName": "__myl_MoveNegExpAddDivMul_0xe308c6952e3e127e81f42eb65f61547d",
          "StreamId": 0,
          "Metadata": "[ONNX Layer: /model.4/cv1/act/Sigmoid]\u001e[ONNX Layer: /model.4/cv1/act/Mul]"
        },
        {
          "Name": "/model.4/m.0/cv1/conv/Conv",
          "LayerType": "CaskConvolution",
          "Inputs": [
            {
              "Name": "/model.4/cv1/act/Mul_output_0",
              "Location": "Device",
              "Dimensions": [
                1,
                32,
                80,
                80
              ],
              "Datatype": "Float",
              "Format": "(NHWC4) Channel major format where channel % 4 == 0"
            }
          ],
          "Outputs": [
            {
              "Name": "/model.4/m.0/cv1/conv/Conv_output_0",
              "Location": "Device",
              "Dimensions": [
                1,
                16,
                80,
                80
              ],
              "Datatype": "Float",
              "Format": "(NHWC4) Channel major format where channel % 4 == 0"
            }
          ],
          "ParameterType": "Convolution",
          "Kernel": [
            3,
            3
          ],
          "PaddingMode": "kEXPLICIT_ROUND_DOWN",
          "PrePadding": [
            1,
            1
          ],
          "PostPadding": [
            1,
            1
          ],
          "Stride": [
            1,
            1
          ],
          "Dilation": [
            1,
            1
          ],
          "OutMaps": 16,
          "Groups": 1,
          "Weights": {
            "Type": "Float",
            "Count": 4608
          },
          "Bias": {
            "Type": "Float",
            "Count": 16
          },
          "HasBias": 1,
          "HasReLU": 0,
          "HasSparseWeights": 0,
          "HasDynamicFilter": 0,
          "HasDynamicBias": 0,
          "HasResidual": 0,
          "ConvXAsActInputIdx": -1,
          "BiasAsActInputIdx": -1,
          "ResAsActInputIdx": -1,
          "Activation": "NONE",
          "TacticName": "sm80_xmma_fprop_implicit_gemm_indexed_wo_smem_f32f32_tf32f32_f32_nhwckrsc_nhwc_tilesize128x16x64_stage1_warpsize4x1x1_g1_tensor16x8x8",
          "TacticValue": "0x10383a0781d24dde",
          "StreamId": 0,
          "Metadata": "[ONNX Layer: /model.4/m.0/cv1/conv/Conv]"
        },
        {
          "Name": "__myl_MoveNegExpAddDivMul_myl30_0",
          "LayerType": "kgen",
          "Inputs": [
            {
              "Name": "/model.4/m.0/cv1/conv/Conv_output_0",
              "Dimensions": [
                1,
                16,
                80,
                80
              ],
              "Strides": [
                102400,
                1,
                1280,
                16
              ],
              "StrideOrder": [
                3,
                0,
                2,
                1
              ],
              "Datatype": "Float",
              "Format": "(NHWC) Channel major format"
            }
          ],
          "Constants": [],
          "Outputs": [
            {
              "Name": "/model.4/m.0/cv1/act/Mul_output_0",
              "Dimensions": [
                1,
                16,
                80,
                80
              ],
              "Strides": [
                102400,
                1,
                1280,
                16
              ],
              "StrideOrder": [
                3,
                0,
                2,
                1
              ],
              "Datatype": "Float",
              "Format": "(NHWC) Channel major format"
            }
          ],
          "TacticName": "__myl_MoveNegExpAddDivMul_0xeb95f34e5ddd7a0b2d0b8d007350a9e2",
          "StreamId": 0,
          "Metadata": "[ONNX Layer: /model.4/m.0/cv1/act/Sigmoid]\u001e[ONNX Layer: /model.4/m.0/cv1/act/Mul]"
        },
        {
          "Name": "/model.4/m.0/cv2/conv/Conv",
          "LayerType": "CaskConvolution",
          "Inputs": [
            {
              "Name": "/model.4/m.0/cv1/act/Mul_output_0",
              "Location": "Device",
              "Dimensions": [
                1,
                16,
                80,
                80
              ],
              "Datatype": "Float",
              "Format": "(NHWC4) Channel major format where channel % 4 == 0"
            }
          ],
          "Outputs": [
            {
              "Name": "/model.4/m.0/cv2/conv/Conv_output_0",
              "Location": "Device",
              "Dimensions": [
                1,
                32,
                80,
                80
              ],
              "Datatype": "Float",
              "Format": "(NHWC4) Channel major format where channel % 4 == 0"
            }
          ],
          "ParameterType": "Convolution",
          "Kernel": [
            3,
            3
          ],
          "PaddingMode": "kEXPLICIT_ROUND_DOWN",
          "PrePadding": [
            1,
            1
          ],
          "PostPadding": [
            1,
            1
          ],
          "Stride": [
            1,
            1
          ],
          "Dilation": [
            1,
            1
          ],
          "OutMaps": 32,
          "Groups": 1,
          "Weights": {
            "Type": "Float",
            "Count": 4608
          },
          "Bias": {
            "Type": "Float",
            "Count": 32
          },
          "HasBias": 1,
          "HasReLU": 0,
          "HasSparseWeights": 0,
          "HasDynamicFilter": 0,
          "HasDynamicBias": 0,
          "HasResidual": 0,
          "ConvXAsActInputIdx": -1,
          "BiasAsActInputIdx": -1,
          "ResAsActInputIdx": -1,
          "Activation": "NONE",
          "TacticName": "sm80_xmma_fprop_implicit_gemm_indexed_wo_smem_f32f32_tf32f32_f32_nhwckrsc_nhwc_tilesize128x16x32_stage1_warpsize4x1x1_g1_tensor16x8x8",
          "TacticValue": "0xae48d3ccfe1edfcd",
          "StreamId": 0,
          "Metadata": "[ONNX Layer: /model.4/m.0/cv2/conv/Conv]"
        },
        {
          "Name": "__myl_MoveNegExpAddDivMulAdd_myl32_0",
          "LayerType": "kgen",
          "Inputs": [
            {
              "Name": "/model.4/cv1/act/Mul_output_0",
              "Dimensions": [
                1,
                32,
                80,
                80
              ],
              "Strides": [
                409600,
                1,
                5120,
                64
              ],
              "StrideOrder": [
                3,
                0,
                2,
                1
              ],
              "Datatype": "Float",
              "Format": "(NHWC) Channel major format"
            },
            {
              "Name": "/model.4/m.0/cv2/conv/Conv_output_0",
              "Dimensions": [
                1,
                32,
                80,
                80
              ],
              "Strides": [
                204800,
                1,
                2560,
                32
              ],
              "StrideOrder": [
                3,
                0,
                2,
                1
              ],
              "Datatype": "Float",
              "Format": "(NHWC) Channel major format"
            }
          ],
          "Constants": [],
          "Outputs": [
            {
              "Name": "/model.4/Concat_output_0",
              "Dimensions": [
                1,
                32,
                80,
                80
              ],
              "Strides": [
                614400,
                1,
                7680,
                96
              ],
              "StrideOrder": [
                3,
                0,
                2,
                1
              ],
              "Datatype": "Float",
              "Format": "(NHWC) Channel major format"
            }
          ],
          "TacticName": "__myl_MoveNegExpAddDivMulAdd_0x648f1c044e1aa5ae4a56988a20bdab7b",
          "StreamId": 0,
          "Metadata": "[ONNX Layer: /model.4/m.0/cv2/act/Sigmoid]\u001e[ONNX Layer: /model.4/m.0/cv2/act/Mul]\u001e[ONNX Layer: /model.4/m.0/Add]"
        },
        {
          "Name": "/model.4/Split_output_0 copy",
          "LayerType": "Reformat",
          "Inputs": [
            {
              "Name": "/model.4/cv1/act/Mul_output_0",
              "Location": "Device",
              "Dimensions": [
                1,
                32,
                80,
                80
              ],
              "Datatype": "Float",
              "Format": "(NHWC4) Channel major format where channel % 4 == 0"
            }
          ],
          "Outputs": [
            {
              "Name": "/model.4/Concat_output_0",
              "Location": "Device",
              "Dimensions": [
                1,
                32,
                80,
                80
              ],
              "Datatype": "Float",
              "Format": "(NHWC4) Channel major format where channel % 4 == 0"
            }
          ],
          "ParameterType": "Reformat",
          "Origin": "CONCAT",
          "TacticValue": "0x0000000000000000",
          "StreamId": 0,
          "Metadata": "[ONNX Layer: /model.4/Concat]"
        },
        {
          "Name": "/model.4/Split_output_1 copy",
          "LayerType": "Reformat",
          "Inputs": [
            {
              "Name": "/model.4/cv1/act/Mul_output_0",
              "Location": "Device",
              "Dimensions": [
                1,
                32,
                80,
                80
              ],
              "Datatype": "Float",
              "Format": "(NHWC4) Channel major format where channel % 4 == 0"
            }
          ],
          "Outputs": [
            {
              "Name": "/model.4/Concat_output_0",
              "Location": "Device",
              "Dimensions": [
                1,
                32,
                80,
                80
              ],
              "Datatype": "Float",
              "Format": "(NHWC4) Channel major format where channel % 4 == 0"
            }
          ],
          "ParameterType": "Reformat",
          "Origin": "CONCAT",
          "TacticValue": "0x0000000000000000",
          "StreamId": 0,
          "Metadata": "[ONNX Layer: /model.4/Concat]"
        },
        {
          "Name": "/model.4/cv2/conv/Conv",
          "LayerType": "CaskGemmConvolution",
          "Inputs": [
            {
              "Name": "/model.4/Concat_output_0",
              "Location": "Device",
              "Dimensions": [
                1,
                96,
                80,
                80
              ],
              "Datatype": "Float",
              "Format": "(NHWC4) Channel major format where channel % 4 == 0"
            }
          ],
          "Outputs": [
            {
              "Name": "/model.4/cv2/conv/Conv_output_0",
              "Location": "Device",
              "Dimensions": [
                1,
                128,
                80,
                80
              ],
              "Datatype": "Float",
              "Format": "(NHWC4) Channel major format where channel % 4 == 0"
            }
          ],
          "ParameterType": "Convolution",
          "Kernel": [
            1,
            1
          ],
          "PaddingMode": "kEXPLICIT_ROUND_DOWN",
          "PrePadding": [
            0,
            0
          ],
          "PostPadding": [
            0,
            0
          ],
          "Stride": [
            1,
            1
          ],
          "Dilation": [
            1,
            1
          ],
          "OutMaps": 128,
          "Groups": 1,
          "Weights": {
            "Type": "Float",
            "Count": 12288
          },
          "Bias": {
            "Type": "Float",
            "Count": 128
          },
          "HasBias": 1,
          "HasReLU": 0,
          "HasSparseWeights": 0,
          "HasDynamicFilter": 0,
          "HasDynamicBias": 0,
          "HasResidual": 0,
          "ConvXAsActInputIdx": -1,
          "BiasAsActInputIdx": -1,
          "ResAsActInputIdx": -1,
          "Activation": "NONE",
          "TacticName": "sm80_xmma_gemm_f32f32_tf32f32_f32_tn_n_tilesize64x128x16_stage4_warpsize2x2x1_tensor16x8x8",
          "TacticValue": "0x0000000000020466",
          "StreamId": 0,
          "Metadata": "[ONNX Layer: /model.4/cv2/conv/Conv]"
        },
        {
          "Name": "Reformatting CopyNode for Input Tensor 0 to PWN(PWN(/model.4/cv2/act/Sigmoid), PWN(/model.4/cv2/act/Mul))",
          "LayerType": "NoOp",
          "Inputs": [
            {
              "Name": "/model.4/cv2/conv/Conv_output_0",
              "Location": "Device",
              "Dimensions": [
                1,
                128,
                80,
                80
              ],
              "Datatype": "Float",
              "Format": "(NHWC4) Channel major format where channel % 4 == 0"
            }
          ],
          "Outputs": [
            {
              "Name": "Reformatted Input Tensor 0 to PWN(PWN(/model.4/cv2/act/Sigmoid), PWN(/model.4/cv2/act/Mul))",
              "Location": "Device",
              "Dimensions": [
                1,
                128,
                80,
                80
              ],
              "Datatype": "Float",
              "Format": "(NHWC) Channel major format"
            }
          ],
          "TacticValue": "0x0000000000000000",
          "StreamId": 0,
          "Metadata": ""
        },
        {
          "Name": "__myl_MoveNegExpAddDivMul_myl37_0",
          "LayerType": "kgen",
          "Inputs": [
            {
              "Name": "Reformatted Input Tensor 0 to PWN(PWN(/model.4/cv2/act/Sigmoid), PWN(/model.4/cv2/act/Mul))",
              "Dimensions": [
                1,
                128,
                80,
                80
              ],
              "Strides": [
                819200,
                1,
                10240,
                128
              ],
              "StrideOrder": [
                3,
                0,
                2,
                1
              ],
              "Datatype": "Float",
              "Format": "(NHWC) Channel major format"
            }
          ],
          "Constants": [],
          "Outputs": [
            {
              "Name": "/model.15/Concat_output_0",
              "Dimensions": [
                1,
                128,
                80,
                80
              ],
              "Strides": [
                1638400,
                1,
                20480,
                256
              ],
              "StrideOrder": [
                3,
                0,
                2,
                1
              ],
              "Datatype": "Float",
              "Format": "(NHWC) Channel major format"
            }
          ],
          "TacticName": "__myl_MoveNegExpAddDivMul_0x058634245a6090a759189ab68d68a410",
          "StreamId": 0,
          "Metadata": "[ONNX Layer: /model.4/cv2/act/Sigmoid]\u001e[ONNX Layer: /model.4/cv2/act/Mul]"
        },
        {
          "Name": "/model.5/conv/Conv",
          "LayerType": "CaskConvolution",
          "Inputs": [
            {
              "Name": "/model.15/Concat_output_0",
              "Location": "Device",
              "Dimensions": [
                1,
                128,
                80,
                80
              ],
              "Datatype": "Float",
              "Format": "(NHWC) Channel major format"
            }
          ],
          "Outputs": [
            {
              "Name": "/model.5/conv/Conv_output_0",
              "Location": "Device",
              "Dimensions": [
                1,
                128,
                40,
                40
              ],
              "Datatype": "Float",
              "Format": "(NHWC) Channel major format"
            }
          ],
          "ParameterType": "Convolution",
          "Kernel": [
            3,
            3
          ],
          "PaddingMode": "kEXPLICIT_ROUND_DOWN",
          "PrePadding": [
            1,
            1
          ],
          "PostPadding": [
            1,
            1
          ],
          "Stride": [
            2,
            2
          ],
          "Dilation": [
            1,
            1
          ],
          "OutMaps": 128,
          "Groups": 1,
          "Weights": {
            "Type": "Float",
            "Count": 147456
          },
          "Bias": {
            "Type": "Float",
            "Count": 128
          },
          "HasBias": 1,
          "HasReLU": 0,
          "HasSparseWeights": 0,
          "HasDynamicFilter": 0,
          "HasDynamicBias": 0,
          "HasResidual": 0,
          "ConvXAsActInputIdx": -1,
          "BiasAsActInputIdx": -1,
          "ResAsActInputIdx": -1,
          "Activation": "NONE",
          "TacticName": "sm80_xmma_fprop_implicit_gemm_f32f32_f32f32_f32_nhwckrsc_nhwc_tilesize64x128x8_stage3_warpsize1x4x1_g1_ffma_t1r3s3_aligna4_alignc4",
          "TacticValue": "0xd15dd11d64344e83",
          "StreamId": 0,
          "Metadata": "[ONNX Layer: /model.5/conv/Conv]"
        },
        {
          "Name": "Reformatting CopyNode for Input Tensor 0 to PWN(PWN(/model.5/act/Sigmoid), PWN(/model.5/act/Mul))",
          "LayerType": "NoOp",
          "Inputs": [
            {
              "Name": "/model.5/conv/Conv_output_0",
              "Location": "Device",
              "Dimensions": [
                1,
                128,
                40,
                40
              ],
              "Datatype": "Float",
              "Format": "(NHWC) Channel major format"
            }
          ],
          "Outputs": [
            {
              "Name": "Reformatted Input Tensor 0 to PWN(PWN(/model.5/act/Sigmoid), PWN(/model.5/act/Mul))",
              "Location": "Device",
              "Dimensions": [
                1,
                128,
                40,
                40
              ],
              "Datatype": "Float",
              "Format": "(NHWC4) Channel major format where channel % 4 == 0"
            }
          ],
          "TacticValue": "0x0000000000000000",
          "StreamId": 0,
          "Metadata": ""
        },
        {
          "Name": "__myl_MoveNegExpAddDivMul_myl40_0",
          "LayerType": "kgen",
          "Inputs": [
            {
              "Name": "Reformatted Input Tensor 0 to PWN(PWN(/model.5/act/Sigmoid), PWN(/model.5/act/Mul))",
              "Dimensions": [
                1,
                128,
                40,
                40
              ],
              "Strides": [
                204800,
                1,
                5120,
                128
              ],
              "StrideOrder": [
                3,
                0,
                2,
                1
              ],
              "Datatype": "Float",
              "Format": "(NHWC) Channel major format"
            }
          ],
          "Constants": [],
          "Outputs": [
            {
              "Name": "/model.5/act/Mul_output_0",
              "Dimensions": [
                1,
                128,
                40,
                40
              ],
              "Strides": [
                204800,
                1,
                5120,
                128
              ],
              "StrideOrder": [
                3,
                0,
                2,
                1
              ],
              "Datatype": "Float",
              "Format": "(NHWC) Channel major format"
            }
          ],
          "TacticName": "__myl_MoveNegExpAddDivMul_0x12ac61173cd6850e36a27f17f05e7755",
          "StreamId": 0,
          "Metadata": "[ONNX Layer: /model.5/act/Sigmoid]\u001e[ONNX Layer: /model.5/act/Mul]"
        },
        {
          "Name": "/model.6/cv1/conv/Conv",
          "LayerType": "CaskGemmConvolution",
          "Inputs": [
            {
              "Name": "/model.5/act/Mul_output_0",
              "Location": "Device",
              "Dimensions": [
                1,
                128,
                40,
                40
              ],
              "Datatype": "Float",
              "Format": "(NHWC4) Channel major format where channel % 4 == 0"
            }
          ],
          "Outputs": [
            {
              "Name": "/model.6/cv1/conv/Conv_output_0",
              "Location": "Device",
              "Dimensions": [
                1,
                128,
                40,
                40
              ],
              "Datatype": "Float",
              "Format": "(NHWC4) Channel major format where channel % 4 == 0"
            }
          ],
          "ParameterType": "Convolution",
          "Kernel": [
            1,
            1
          ],
          "PaddingMode": "kEXPLICIT_ROUND_DOWN",
          "PrePadding": [
            0,
            0
          ],
          "PostPadding": [
            0,
            0
          ],
          "Stride": [
            1,
            1
          ],
          "Dilation": [
            1,
            1
          ],
          "OutMaps": 128,
          "Groups": 1,
          "Weights": {
            "Type": "Float",
            "Count": 16384
          },
          "Bias": {
            "Type": "Float",
            "Count": 128
          },
          "HasBias": 1,
          "HasReLU": 0,
          "HasSparseWeights": 0,
          "HasDynamicFilter": 0,
          "HasDynamicBias": 0,
          "HasResidual": 0,
          "ConvXAsActInputIdx": -1,
          "BiasAsActInputIdx": -1,
          "ResAsActInputIdx": -1,
          "Activation": "NONE",
          "TacticName": "sm86_xmma_gemm_f32f32_tf32f32_f32_tn_n_tilesize128x64x32_stage4_warpsize2x2x1_tensor16x8x8",
          "TacticValue": "0x00000000000205fd",
          "StreamId": 0,
          "Metadata": "[ONNX Layer: /model.6/cv1/conv/Conv]"
        },
        {
          "Name": "__myl_MoveNegExpAddDivMul_myl42_0",
          "LayerType": "kgen",
          "Inputs": [
            {
              "Name": "/model.6/cv1/conv/Conv_output_0",
              "Dimensions": [
                1,
                128,
                40,
                40
              ],
              "Strides": [
                204800,
                1,
                5120,
                128
              ],
              "StrideOrder": [
                3,
                0,
                2,
                1
              ],
              "Datatype": "Float",
              "Format": "(NHWC) Channel major format"
            }
          ],
          "Constants": [],
          "Outputs": [
            {
              "Name": "Reformatted Output Tensor 0 to PWN(PWN(/model.6/cv1/act/Sigmoid), PWN(/model.6/cv1/act/Mul))",
              "Dimensions": [
                1,
                128,
                40,
                40
              ],
              "Strides": [
                204800,
                1,
                5120,
                128
              ],
              "StrideOrder": [
                3,
                0,
                2,
                1
              ],
              "Datatype": "Float",
              "Format": "(NHWC) Channel major format"
            }
          ],
          "TacticName": "__myl_MoveNegExpAddDivMul_0x12ac61173cd6850e36a27f17f05e7755",
          "StreamId": 0,
          "Metadata": "[ONNX Layer: /model.6/cv1/act/Sigmoid]\u001e[ONNX Layer: /model.6/cv1/act/Mul]"
        },
        {
          "Name": "Reformatting CopyNode for Output Tensor 0 to PWN(PWN(/model.6/cv1/act/Sigmoid), PWN(/model.6/cv1/act/Mul))",
          "LayerType": "NoOp",
          "Inputs": [
            {
              "Name": "Reformatted Output Tensor 0 to PWN(PWN(/model.6/cv1/act/Sigmoid), PWN(/model.6/cv1/act/Mul))",
              "Location": "Device",
              "Dimensions": [
                1,
                128,
                40,
                40
              ],
              "Datatype": "Float",
              "Format": "(NHWC4) Channel major format where channel % 4 == 0"
            }
          ],
          "Outputs": [
            {
              "Name": "/model.6/cv1/act/Mul_output_0",
              "Location": "Device",
              "Dimensions": [
                1,
                128,
                40,
                40
              ],
              "Datatype": "Float",
              "Format": "(NHWC) Channel major format"
            }
          ],
          "TacticValue": "0x0000000000000000",
          "StreamId": 0,
          "Metadata": ""
        },
        {
          "Name": "/model.6/m.0/cv2/conv/Conv || /model.6/m.0/cv1/conv/Conv",
          "LayerType": "CaskConvolution",
          "Inputs": [
            {
              "Name": "/model.6/cv1/act/Mul_output_0",
              "Location": "Device",
              "Dimensions": [
                1,
                64,
                40,
                40
              ],
              "Datatype": "Float",
              "Format": "(NHWC) Channel major format"
            }
          ],
          "Outputs": [
            {
              "Name": "Reformatted Output Tensor 0 to /model.6/m.0/cv2/conv/Conv || /model.6/m.0/cv1/conv/Conv",
              "Location": "Device",
              "Dimensions": [
                1,
                64,
                40,
                40
              ],
              "Datatype": "Float",
              "Format": "(NHWC) Channel major format"
            }
          ],
          "ParameterType": "Convolution",
          "Kernel": [
            1,
            1
          ],
          "PaddingMode": "kEXPLICIT_ROUND_DOWN",
          "PrePadding": [
            0,
            0
          ],
          "PostPadding": [
            0,
            0
          ],
          "Stride": [
            1,
            1
          ],
          "Dilation": [
            1,
            1
          ],
          "OutMaps": 64,
          "Groups": 1,
          "Weights": {
            "Type": "Float",
            "Count": 4096
          },
          "Bias": {
            "Type": "Float",
            "Count": 64
          },
          "HasBias": 1,
          "HasReLU": 0,
          "HasSparseWeights": 0,
          "HasDynamicFilter": 0,
          "HasDynamicBias": 0,
          "HasResidual": 0,
          "ConvXAsActInputIdx": -1,
          "BiasAsActInputIdx": -1,
          "ResAsActInputIdx": -1,
          "Activation": "NONE",
          "TacticName": "sm80_xmma_fprop_implicit_gemm_f32f32_f32f32_f32_nhwckrsc_nhwc_tilesize64x64x8_stage3_warpsize1x4x1_g1_ffma_t1r1s1_aligna4_alignc4",
          "TacticValue": "0x55d80c17b1cd982d",
          "StreamId": 0,
          "Metadata": "[ONNX Layer: /model.6/m.0/cv2/conv/Conv]\u001e[ONNX Layer: /model.6/m.0/cv1/conv/Conv]"
        },
        {
          "Name": "Reformatting CopyNode for Output Tensor 0 to /model.6/m.0/cv2/conv/Conv || /model.6/m.0/cv1/conv/Conv",
          "LayerType": "NoOp",
          "Inputs": [
            {
              "Name": "Reformatted Output Tensor 0 to /model.6/m.0/cv2/conv/Conv || /model.6/m.0/cv1/conv/Conv",
              "Location": "Device",
              "Dimensions": [
                1,
                64,
                40,
                40
              ],
              "Datatype": "Float",
              "Format": "(NHWC) Channel major format"
            }
          ],
          "Outputs": [
            {
              "Name": "/model.6/m.0/cv2/conv/Conv || /model.6/m.0/cv1/conv/Conv",
              "Location": "Device",
              "Dimensions": [
                1,
                64,
                40,
                40
              ],
              "Datatype": "Float",
              "Format": "(NHWC4) Channel major format where channel % 4 == 0"
            }
          ],
          "TacticValue": "0x0000000000000000",
          "StreamId": 0,
          "Metadata": ""
        },
        {
          "Name": "__myl_MoveNegExpAddDivMul_myl46_0",
          "LayerType": "kgen",
          "Inputs": [
            {
              "Name": "/model.6/m.0/cv2/conv/Conv || /model.6/m.0/cv1/conv/Conv",
              "Dimensions": [
                1,
                32,
                40,
                40
              ],
              "Strides": [
                102400,
                1,
                2560,
                64
              ],
              "StrideOrder": [
                3,
                0,
                2,
                1
              ],
              "Datatype": "Float",
              "Format": "(NHWC) Channel major format"
            }
          ],
          "Constants": [],
          "Outputs": [
            {
              "Name": "/model.6/m.0/cv1/act/Mul_output_0",
              "Dimensions": [
                1,
                32,
                40,
                40
              ],
              "Strides": [
                51200,
                1,
                1280,
                32
              ],
              "StrideOrder": [
                3,
                0,
                2,
                1
              ],
              "Datatype": "Float",
              "Format": "(NHWC) Channel major format"
            }
          ],
          "TacticName": "__myl_MoveNegExpAddDivMul_0xd0400d889bd9ac769ca987c08d2eaa07",
          "StreamId": 0,
          "Metadata": "[ONNX Layer: /model.6/m.0/cv1/act/Sigmoid]\u001e[ONNX Layer: /model.6/m.0/cv1/act/Mul]"
        },
        {
          "Name": "/model.6/m.0/m/m.0/cv1/conv/Conv",
          "LayerType": "CaskConvolution",
          "Inputs": [
            {
              "Name": "/model.6/m.0/cv1/act/Mul_output_0",
              "Location": "Device",
              "Dimensions": [
                1,
                32,
                40,
                40
              ],
              "Datatype": "Float",
              "Format": "(NHWC4) Channel major format where channel % 4 == 0"
            }
          ],
          "Outputs": [
            {
              "Name": "/model.6/m.0/m/m.0/cv1/conv/Conv_output_0",
              "Location": "Device",
              "Dimensions": [
                1,
                32,
                40,
                40
              ],
              "Datatype": "Float",
              "Format": "(NHWC4) Channel major format where channel % 4 == 0"
            }
          ],
          "ParameterType": "Convolution",
          "Kernel": [
            3,
            3
          ],
          "PaddingMode": "kEXPLICIT_ROUND_DOWN",
          "PrePadding": [
            1,
            1
          ],
          "PostPadding": [
            1,
            1
          ],
          "Stride": [
            1,
            1
          ],
          "Dilation": [
            1,
            1
          ],
          "OutMaps": 32,
          "Groups": 1,
          "Weights": {
            "Type": "Float",
            "Count": 9216
          },
          "Bias": {
            "Type": "Float",
            "Count": 32
          },
          "HasBias": 1,
          "HasReLU": 0,
          "HasSparseWeights": 0,
          "HasDynamicFilter": 0,
          "HasDynamicBias": 0,
          "HasResidual": 0,
          "ConvXAsActInputIdx": -1,
          "BiasAsActInputIdx": -1,
          "ResAsActInputIdx": -1,
          "Activation": "NONE",
          "TacticName": "sm80_xmma_fprop_implicit_gemm_indexed_wo_smem_f32f32_tf32f32_f32_nhwckrsc_nhwc_tilesize128x16x64_stage1_warpsize4x1x1_g1_tensor16x8x8",
          "TacticValue": "0x10383a0781d24dde",
          "StreamId": 0,
          "Metadata": "[ONNX Layer: /model.6/m.0/m/m.0/cv1/conv/Conv]"
        },
        {
          "Name": "__myl_MoveNegExpAddDivMul_myl48_0",
          "LayerType": "kgen",
          "Inputs": [
            {
              "Name": "/model.6/m.0/m/m.0/cv1/conv/Conv_output_0",
              "Dimensions": [
                1,
                32,
                40,
                40
              ],
              "Strides": [
                51200,
                1,
                1280,
                32
              ],
              "StrideOrder": [
                3,
                0,
                2,
                1
              ],
              "Datatype": "Float",
              "Format": "(NHWC) Channel major format"
            }
          ],
          "Constants": [],
          "Outputs": [
            {
              "Name": "/model.6/m.0/m/m.0/cv1/act/Mul_output_0",
              "Dimensions": [
                1,
                32,
                40,
                40
              ],
              "Strides": [
                51200,
                1,
                1280,
                32
              ],
              "StrideOrder": [
                3,
                0,
                2,
                1
              ],
              "Datatype": "Float",
              "Format": "(NHWC) Channel major format"
            }
          ],
          "TacticName": "__myl_MoveNegExpAddDivMul_0xd2e0da0d47e67955c111e566bc5d9865",
          "StreamId": 0,
          "Metadata": "[ONNX Layer: /model.6/m.0/m/m.0/cv1/act/Sigmoid]\u001e[ONNX Layer: /model.6/m.0/m/m.0/cv1/act/Mul]"
        },
        {
          "Name": "/model.6/m.0/m/m.0/cv2/conv/Conv",
          "LayerType": "CaskConvolution",
          "Inputs": [
            {
              "Name": "/model.6/m.0/m/m.0/cv1/act/Mul_output_0",
              "Location": "Device",
              "Dimensions": [
                1,
                32,
                40,
                40
              ],
              "Datatype": "Float",
              "Format": "(NHWC4) Channel major format where channel % 4 == 0"
            }
          ],
          "Outputs": [
            {
              "Name": "/model.6/m.0/m/m.0/cv2/conv/Conv_output_0",
              "Location": "Device",
              "Dimensions": [
                1,
                32,
                40,
                40
              ],
              "Datatype": "Float",
              "Format": "(NHWC4) Channel major format where channel % 4 == 0"
            }
          ],
          "ParameterType": "Convolution",
          "Kernel": [
            3,
            3
          ],
          "PaddingMode": "kEXPLICIT_ROUND_DOWN",
          "PrePadding": [
            1,
            1
          ],
          "PostPadding": [
            1,
            1
          ],
          "Stride": [
            1,
            1
          ],
          "Dilation": [
            1,
            1
          ],
          "OutMaps": 32,
          "Groups": 1,
          "Weights": {
            "Type": "Float",
            "Count": 9216
          },
          "Bias": {
            "Type": "Float",
            "Count": 32
          },
          "HasBias": 1,
          "HasReLU": 0,
          "HasSparseWeights": 0,
          "HasDynamicFilter": 0,
          "HasDynamicBias": 0,
          "HasResidual": 0,
          "ConvXAsActInputIdx": -1,
          "BiasAsActInputIdx": -1,
          "ResAsActInputIdx": -1,
          "Activation": "NONE",
          "TacticName": "sm80_xmma_fprop_implicit_gemm_indexed_wo_smem_f32f32_tf32f32_f32_nhwckrsc_nhwc_tilesize128x16x64_stage1_warpsize4x1x1_g1_tensor16x8x8",
          "TacticValue": "0x10383a0781d24dde",
          "StreamId": 0,
          "Metadata": "[ONNX Layer: /model.6/m.0/m/m.0/cv2/conv/Conv]"
        },
        {
          "Name": "Reformatting CopyNode for Input Tensor 0 to PWN(PWN(PWN(/model.6/m.0/m/m.0/cv2/act/Sigmoid), PWN(/model.6/m.0/m/m.0/cv2/act/Mul)), PWN(/model.6/m.0/m/m.0/Add))",
          "LayerType": "NoOp",
          "Inputs": [
            {
              "Name": "/model.6/m.0/m/m.0/cv2/conv/Conv_output_0",
              "Location": "Device",
              "Dimensions": [
                1,
                32,
                40,
                40
              ],
              "Datatype": "Float",
              "Format": "(NHWC4) Channel major format where channel % 4 == 0"
            }
          ],
          "Outputs": [
            {
              "Name": "Reformatted Input Tensor 0 to PWN(PWN(PWN(/model.6/m.0/m/m.0/cv2/act/Sigmoid), PWN(/model.6/m.0/m/m.0/cv2/act/Mul)), PWN(/model.6/m.0/m/m.0/Add))",
              "Location": "Device",
              "Dimensions": [
                1,
                32,
                40,
                40
              ],
              "Datatype": "Float",
              "Format": "(NHWC) Channel major format"
            }
          ],
          "TacticValue": "0x0000000000000000",
          "StreamId": 0,
          "Metadata": ""
        },
        {
          "Name": "Reformatting CopyNode for Input Tensor 1 to PWN(PWN(PWN(/model.6/m.0/m/m.0/cv2/act/Sigmoid), PWN(/model.6/m.0/m/m.0/cv2/act/Mul)), PWN(/model.6/m.0/m/m.0/Add))",
          "LayerType": "NoOp",
          "Inputs": [
            {
              "Name": "/model.6/m.0/cv1/act/Mul_output_0",
              "Location": "Device",
              "Dimensions": [
                1,
                32,
                40,
                40
              ],
              "Datatype": "Float",
              "Format": "(NHWC4) Channel major format where channel % 4 == 0"
            }
          ],
          "Outputs": [
            {
              "Name": "Reformatted Input Tensor 1 to PWN(PWN(PWN(/model.6/m.0/m/m.0/cv2/act/Sigmoid), PWN(/model.6/m.0/m/m.0/cv2/act/Mul)), PWN(/model.6/m.0/m/m.0/Add))",
              "Location": "Device",
              "Dimensions": [
                1,
                32,
                40,
                40
              ],
              "Datatype": "Float",
              "Format": "(NHWC) Channel major format"
            }
          ],
          "TacticValue": "0x0000000000000000",
          "StreamId": 0,
          "Metadata": ""
        },
        {
          "Name": "__myl_MoveNegExpAddDivMulAdd_myl52_0",
          "LayerType": "kgen",
          "Inputs": [
            {
              "Name": "Reformatted Input Tensor 1 to PWN(PWN(PWN(/model.6/m.0/m/m.0/cv2/act/Sigmoid), PWN(/model.6/m.0/m/m.0/cv2/act/Mul)), PWN(/model.6/m.0/m/m.0/Add))",
              "Dimensions": [
                1,
                32,
                40,
                40
              ],
              "Strides": [
                51200,
                1,
                1280,
                32
              ],
              "StrideOrder": [
                3,
                0,
                2,
                1
              ],
              "Datatype": "Float",
              "Format": "(NHWC) Channel major format"
            },
            {
              "Name": "Reformatted Input Tensor 0 to PWN(PWN(PWN(/model.6/m.0/m/m.0/cv2/act/Sigmoid), PWN(/model.6/m.0/m/m.0/cv2/act/Mul)), PWN(/model.6/m.0/m/m.0/Add))",
              "Dimensions": [
                1,
                32,
                40,
                40
              ],
              "Strides": [
                51200,
                1,
                1280,
                32
              ],
              "StrideOrder": [
                3,
                0,
                2,
                1
              ],
              "Datatype": "Float",
              "Format": "(NHWC) Channel major format"
            }
          ],
          "Constants": [],
          "Outputs": [
            {
              "Name": "Reformatted Output Tensor 0 to PWN(PWN(PWN(/model.6/m.0/m/m.0/cv2/act/Sigmoid), PWN(/model.6/m.0/m/m.0/cv2/act/Mul)), PWN(/model.6/m.0/m/m.0/Add))",
              "Dimensions": [
                1,
                32,
                40,
                40
              ],
              "Strides": [
                51200,
                1,
                1280,
                32
              ],
              "StrideOrder": [
                3,
                0,
                2,
                1
              ],
              "Datatype": "Float",
              "Format": "(NHWC) Channel major format"
            }
          ],
          "TacticName": "__myl_MoveNegExpAddDivMulAdd_0x5e9db91b5a7c1d59433e193e1d5b2e80",
          "StreamId": 0,
          "Metadata": "[ONNX Layer: /model.6/m.0/m/m.0/cv2/act/Sigmoid]\u001e[ONNX Layer: /model.6/m.0/m/m.0/cv2/act/Mul]\u001e[ONNX Layer: /model.6/m.0/m/m.0/Add]"
        },
        {
          "Name": "Reformatting CopyNode for Output Tensor 0 to PWN(PWN(PWN(/model.6/m.0/m/m.0/cv2/act/Sigmoid), PWN(/model.6/m.0/m/m.0/cv2/act/Mul)), PWN(/model.6/m.0/m/m.0/Add))",
          "LayerType": "NoOp",
          "Inputs": [
            {
              "Name": "Reformatted Output Tensor 0 to PWN(PWN(PWN(/model.6/m.0/m/m.0/cv2/act/Sigmoid), PWN(/model.6/m.0/m/m.0/cv2/act/Mul)), PWN(/model.6/m.0/m/m.0/Add))",
              "Location": "Device",
              "Dimensions": [
                1,
                32,
                40,
                40
              ],
              "Datatype": "Float",
              "Format": "(NHWC) Channel major format"
            }
          ],
          "Outputs": [
            {
              "Name": "/model.6/m.0/m/m.0/Add_output_0",
              "Location": "Device",
              "Dimensions": [
                1,
                32,
                40,
                40
              ],
              "Datatype": "Float",
              "Format": "(NHWC4) Channel major format where channel % 4 == 0"
            }
          ],
          "TacticValue": "0x0000000000000000",
          "StreamId": 0,
          "Metadata": ""
        },
        {
          "Name": "/model.6/m.0/m/m.1/cv1/conv/Conv",
          "LayerType": "CaskConvolution",
          "Inputs": [
            {
              "Name": "/model.6/m.0/m/m.0/Add_output_0",
              "Location": "Device",
              "Dimensions": [
                1,
                32,
                40,
                40
              ],
              "Datatype": "Float",
              "Format": "(NHWC4) Channel major format where channel % 4 == 0"
            }
          ],
          "Outputs": [
            {
              "Name": "/model.6/m.0/m/m.1/cv1/conv/Conv_output_0",
              "Location": "Device",
              "Dimensions": [
                1,
                32,
                40,
                40
              ],
              "Datatype": "Float",
              "Format": "(NHWC4) Channel major format where channel % 4 == 0"
            }
          ],
          "ParameterType": "Convolution",
          "Kernel": [
            3,
            3
          ],
          "PaddingMode": "kEXPLICIT_ROUND_DOWN",
          "PrePadding": [
            1,
            1
          ],
          "PostPadding": [
            1,
            1
          ],
          "Stride": [
            1,
            1
          ],
          "Dilation": [
            1,
            1
          ],
          "OutMaps": 32,
          "Groups": 1,
          "Weights": {
            "Type": "Float",
            "Count": 9216
          },
          "Bias": {
            "Type": "Float",
            "Count": 32
          },
          "HasBias": 1,
          "HasReLU": 0,
          "HasSparseWeights": 0,
          "HasDynamicFilter": 0,
          "HasDynamicBias": 0,
          "HasResidual": 0,
          "ConvXAsActInputIdx": -1,
          "BiasAsActInputIdx": -1,
          "ResAsActInputIdx": -1,
          "Activation": "NONE",
          "TacticName": "sm80_xmma_fprop_implicit_gemm_indexed_wo_smem_f32f32_tf32f32_f32_nhwckrsc_nhwc_tilesize128x16x64_stage1_warpsize4x1x1_g1_tensor16x8x8",
          "TacticValue": "0x10383a0781d24dde",
          "StreamId": 0,
          "Metadata": "[ONNX Layer: /model.6/m.0/m/m.1/cv1/conv/Conv]"
        },
        {
          "Name": "__myl_MoveNegExpAddDivMul_myl55_0",
          "LayerType": "kgen",
          "Inputs": [
            {
              "Name": "/model.6/m.0/m/m.1/cv1/conv/Conv_output_0",
              "Dimensions": [
                1,
                32,
                40,
                40
              ],
              "Strides": [
                51200,
                1,
                1280,
                32
              ],
              "StrideOrder": [
                3,
                0,
                2,
                1
              ],
              "Datatype": "Float",
              "Format": "(NHWC) Channel major format"
            }
          ],
          "Constants": [],
          "Outputs": [
            {
              "Name": "/model.6/m.0/m/m.1/cv1/act/Mul_output_0",
              "Dimensions": [
                1,
                32,
                40,
                40
              ],
              "Strides": [
                51200,
                1,
                1280,
                32
              ],
              "StrideOrder": [
                3,
                0,
                2,
                1
              ],
              "Datatype": "Float",
              "Format": "(NHWC) Channel major format"
            }
          ],
          "TacticName": "__myl_MoveNegExpAddDivMul_0xd2e0da0d47e67955c111e566bc5d9865",
          "StreamId": 0,
          "Metadata": "[ONNX Layer: /model.6/m.0/m/m.1/cv1/act/Sigmoid]\u001e[ONNX Layer: /model.6/m.0/m/m.1/cv1/act/Mul]"
        },
        {
          "Name": "/model.6/m.0/m/m.1/cv2/conv/Conv",
          "LayerType": "CaskConvolution",
          "Inputs": [
            {
              "Name": "/model.6/m.0/m/m.1/cv1/act/Mul_output_0",
              "Location": "Device",
              "Dimensions": [
                1,
                32,
                40,
                40
              ],
              "Datatype": "Float",
              "Format": "(NHWC4) Channel major format where channel % 4 == 0"
            }
          ],
          "Outputs": [
            {
              "Name": "/model.6/m.0/m/m.1/cv2/conv/Conv_output_0",
              "Location": "Device",
              "Dimensions": [
                1,
                32,
                40,
                40
              ],
              "Datatype": "Float",
              "Format": "(NHWC4) Channel major format where channel % 4 == 0"
            }
          ],
          "ParameterType": "Convolution",
          "Kernel": [
            3,
            3
          ],
          "PaddingMode": "kEXPLICIT_ROUND_DOWN",
          "PrePadding": [
            1,
            1
          ],
          "PostPadding": [
            1,
            1
          ],
          "Stride": [
            1,
            1
          ],
          "Dilation": [
            1,
            1
          ],
          "OutMaps": 32,
          "Groups": 1,
          "Weights": {
            "Type": "Float",
            "Count": 9216
          },
          "Bias": {
            "Type": "Float",
            "Count": 32
          },
          "HasBias": 1,
          "HasReLU": 0,
          "HasSparseWeights": 0,
          "HasDynamicFilter": 0,
          "HasDynamicBias": 0,
          "HasResidual": 0,
          "ConvXAsActInputIdx": -1,
          "BiasAsActInputIdx": -1,
          "ResAsActInputIdx": -1,
          "Activation": "NONE",
          "TacticName": "sm80_xmma_fprop_implicit_gemm_indexed_wo_smem_f32f32_tf32f32_f32_nhwckrsc_nhwc_tilesize128x16x64_stage1_warpsize4x1x1_g1_tensor16x8x8",
          "TacticValue": "0x10383a0781d24dde",
          "StreamId": 0,
          "Metadata": "[ONNX Layer: /model.6/m.0/m/m.1/cv2/conv/Conv]"
        },
        {
          "Name": "__myl_MoveNegExpAddDivMul_myl57_0",
          "LayerType": "kgen",
          "Inputs": [
            {
              "Name": "/model.6/m.0/cv2/conv/Conv || /model.6/m.0/cv1/conv/Conv",
              "Dimensions": [
                1,
                32,
                40,
                40
              ],
              "Strides": [
                102400,
                1,
                2560,
                64
              ],
              "StrideOrder": [
                3,
                0,
                2,
                1
              ],
              "Datatype": "Float",
              "Format": "(NHWC) Channel major format"
            }
          ],
          "Constants": [],
          "Outputs": [
            {
              "Name": "/model.6/m.0/Concat_output_0",
              "Dimensions": [
                1,
                32,
                40,
                40
              ],
              "Strides": [
                102400,
                1,
                2560,
                64
              ],
              "StrideOrder": [
                3,
                0,
                2,
                1
              ],
              "Datatype": "Float",
              "Format": "(NHWC) Channel major format"
            }
          ],
          "TacticName": "__myl_MoveNegExpAddDivMul_0x0679cdfc31e5efccb0aaa070d6de4f25",
          "StreamId": 0,
          "Metadata": "[ONNX Layer: /model.6/m.0/cv2/act/Sigmoid]\u001e[ONNX Layer: /model.6/m.0/cv2/act/Mul]"
        },
        {
          "Name": "__myl_MoveNegExpAddDivMulAdd_myl58_0",
          "LayerType": "kgen",
          "Inputs": [
            {
              "Name": "/model.6/m.0/m/m.0/Add_output_0",
              "Dimensions": [
                1,
                32,
                40,
                40
              ],
              "Strides": [
                51200,
                1,
                1280,
                32
              ],
              "StrideOrder": [
                3,
                0,
                2,
                1
              ],
              "Datatype": "Float",
              "Format": "(NHWC) Channel major format"
            },
            {
              "Name": "/model.6/m.0/m/m.1/cv2/conv/Conv_output_0",
              "Dimensions": [
                1,
                32,
                40,
                40
              ],
              "Strides": [
                51200,
                1,
                1280,
                32
              ],
              "StrideOrder": [
                3,
                0,
                2,
                1
              ],
              "Datatype": "Float",
              "Format": "(NHWC) Channel major format"
            }
          ],
          "Constants": [],
          "Outputs": [
            {
              "Name": "/model.6/m.0/Concat_output_0",
              "Dimensions": [
                1,
                32,
                40,
                40
              ],
              "Strides": [
                102400,
                1,
                2560,
                64
              ],
              "StrideOrder": [
                3,
                0,
                2,
                1
              ],
              "Datatype": "Float",
              "Format": "(NHWC) Channel major format"
            }
          ],
          "TacticName": "__myl_MoveNegExpAddDivMulAdd_0xbd41924645567b5f4deade9f95964f8f",
          "StreamId": 0,
          "Metadata": "[ONNX Layer: /model.6/m.0/m/m.1/cv2/act/Sigmoid]\u001e[ONNX Layer: /model.6/m.0/m/m.1/cv2/act/Mul]\u001e[ONNX Layer: /model.6/m.0/m/m.1/Add]"
        },
        {
          "Name": "/model.6/m.0/cv3/conv/Conv",
          "LayerType": "CaskGemmConvolution",
          "Inputs": [
            {
              "Name": "/model.6/m.0/Concat_output_0",
              "Location": "Device",
              "Dimensions": [
                1,
                64,
                40,
                40
              ],
              "Datatype": "Float",
              "Format": "(NHWC4) Channel major format where channel % 4 == 0"
            }
          ],
          "Outputs": [
            {
              "Name": "/model.6/m.0/cv3/conv/Conv_output_0",
              "Location": "Device",
              "Dimensions": [
                1,
                64,
                40,
                40
              ],
              "Datatype": "Float",
              "Format": "(NHWC4) Channel major format where channel % 4 == 0"
            }
          ],
          "ParameterType": "Convolution",
          "Kernel": [
            1,
            1
          ],
          "PaddingMode": "kEXPLICIT_ROUND_DOWN",
          "PrePadding": [
            0,
            0
          ],
          "PostPadding": [
            0,
            0
          ],
          "Stride": [
            1,
            1
          ],
          "Dilation": [
            1,
            1
          ],
          "OutMaps": 64,
          "Groups": 1,
          "Weights": {
            "Type": "Float",
            "Count": 4096
          },
          "Bias": {
            "Type": "Float",
            "Count": 64
          },
          "HasBias": 1,
          "HasReLU": 0,
          "HasSparseWeights": 0,
          "HasDynamicFilter": 0,
          "HasDynamicBias": 0,
          "HasResidual": 0,
          "ConvXAsActInputIdx": -1,
          "BiasAsActInputIdx": -1,
          "ResAsActInputIdx": -1,
          "Activation": "NONE",
          "TacticName": "sm86_xmma_gemm_f32f32_tf32f32_f32_nn_n_tilesize64x64x64_stage3_warpsize2x2x1_tensor16x8x8",
          "TacticValue": "0x0000000000020130",
          "StreamId": 0,
          "Metadata": "[ONNX Layer: /model.6/m.0/cv3/conv/Conv]"
        },
        {
          "Name": "__myl_MoveNegExpAddDivMul_myl60_0",
          "LayerType": "kgen",
          "Inputs": [
            {
              "Name": "/model.6/m.0/cv3/conv/Conv_output_0",
              "Dimensions": [
                1,
                64,
                40,
                40
              ],
              "Strides": [
                102400,
                1,
                2560,
                64
              ],
              "StrideOrder": [
                3,
                0,
                2,
                1
              ],
              "Datatype": "Float",
              "Format": "(NHWC) Channel major format"
            }
          ],
          "Constants": [],
          "Outputs": [
            {
              "Name": "/model.6/Concat_output_0",
              "Dimensions": [
                1,
                64,
                40,
                40
              ],
              "Strides": [
                307200,
                1,
                7680,
                192
              ],
              "StrideOrder": [
                3,
                0,
                2,
                1
              ],
              "Datatype": "Float",
              "Format": "(NHWC) Channel major format"
            }
          ],
          "TacticName": "__myl_MoveNegExpAddDivMul_0x0fe17f4a927a18a4da143073891c48b8",
          "StreamId": 0,
          "Metadata": "[ONNX Layer: /model.6/m.0/cv3/act/Sigmoid]\u001e[ONNX Layer: /model.6/m.0/cv3/act/Mul]"
        },
        {
          "Name": "/model.6/Split_output_0 copy",
          "LayerType": "Reformat",
          "Inputs": [
            {
              "Name": "/model.6/cv1/act/Mul_output_0",
              "Location": "Device",
              "Dimensions": [
                1,
                64,
                40,
                40
              ],
              "Datatype": "Float",
              "Format": "(NHWC) Channel major format"
            }
          ],
          "Outputs": [
            {
              "Name": "/model.6/Concat_output_0",
              "Location": "Device",
              "Dimensions": [
                1,
                64,
                40,
                40
              ],
              "Datatype": "Float",
              "Format": "(NHWC4) Channel major format where channel % 4 == 0"
            }
          ],
          "ParameterType": "Reformat",
          "Origin": "CONCAT",
          "TacticValue": "0x0000000000000000",
          "StreamId": 0,
          "Metadata": "[ONNX Layer: /model.6/Concat]"
        },
        {
          "Name": "/model.6/Split_output_1 copy",
          "LayerType": "Reformat",
          "Inputs": [
            {
              "Name": "/model.6/cv1/act/Mul_output_0",
              "Location": "Device",
              "Dimensions": [
                1,
                64,
                40,
                40
              ],
              "Datatype": "Float",
              "Format": "(NHWC) Channel major format"
            }
          ],
          "Outputs": [
            {
              "Name": "/model.6/Concat_output_0",
              "Location": "Device",
              "Dimensions": [
                1,
                64,
                40,
                40
              ],
              "Datatype": "Float",
              "Format": "(NHWC4) Channel major format where channel % 4 == 0"
            }
          ],
          "ParameterType": "Reformat",
          "Origin": "CONCAT",
          "TacticValue": "0x0000000000000000",
          "StreamId": 0,
          "Metadata": "[ONNX Layer: /model.6/Concat]"
        },
        {
          "Name": "/model.6/cv2/conv/Conv",
          "LayerType": "CaskGemmConvolution",
          "Inputs": [
            {
              "Name": "/model.6/Concat_output_0",
              "Location": "Device",
              "Dimensions": [
                1,
                192,
                40,
                40
              ],
              "Datatype": "Float",
              "Format": "(NHWC4) Channel major format where channel % 4 == 0"
            }
          ],
          "Outputs": [
            {
              "Name": "/model.6/cv2/conv/Conv_output_0",
              "Location": "Device",
              "Dimensions": [
                1,
                128,
                40,
                40
              ],
              "Datatype": "Float",
              "Format": "(NHWC4) Channel major format where channel % 4 == 0"
            }
          ],
          "ParameterType": "Convolution",
          "Kernel": [
            1,
            1
          ],
          "PaddingMode": "kEXPLICIT_ROUND_DOWN",
          "PrePadding": [
            0,
            0
          ],
          "PostPadding": [
            0,
            0
          ],
          "Stride": [
            1,
            1
          ],
          "Dilation": [
            1,
            1
          ],
          "OutMaps": 128,
          "Groups": 1,
          "Weights": {
            "Type": "Float",
            "Count": 24576
          },
          "Bias": {
            "Type": "Float",
            "Count": 128
          },
          "HasBias": 1,
          "HasReLU": 0,
          "HasSparseWeights": 0,
          "HasDynamicFilter": 0,
          "HasDynamicBias": 0,
          "HasResidual": 0,
          "ConvXAsActInputIdx": -1,
          "BiasAsActInputIdx": -1,
          "ResAsActInputIdx": -1,
          "Activation": "NONE",
          "TacticName": "sm86_xmma_gemm_f32f32_tf32f32_f32_tn_n_tilesize128x64x32_stage4_warpsize2x2x1_tensor16x8x8",
          "TacticValue": "0x00000000000205fd",
          "StreamId": 0,
          "Metadata": "[ONNX Layer: /model.6/cv2/conv/Conv]"
        },
        {
          "Name": "__myl_MoveNegExpAddDivMul_myl64_0",
          "LayerType": "kgen",
          "Inputs": [
            {
              "Name": "/model.6/cv2/conv/Conv_output_0",
              "Dimensions": [
                1,
                128,
                40,
                40
              ],
              "Strides": [
                204800,
                1,
                5120,
                128
              ],
              "StrideOrder": [
                3,
                0,
                2,
                1
              ],
              "Datatype": "Float",
              "Format": "(NHWC) Channel major format"
            }
          ],
          "Constants": [],
          "Outputs": [
            {
              "Name": "/model.12/Concat_output_0",
              "Dimensions": [
                1,
                128,
                40,
                40
              ],
              "Strides": [
                614400,
                1,
                15360,
                384
              ],
              "StrideOrder": [
                3,
                0,
                2,
                1
              ],
              "Datatype": "Float",
              "Format": "(NHWC) Channel major format"
            }
          ],
          "TacticName": "__myl_MoveNegExpAddDivMul_0xeaf9699205e4b2ec7330a9a461055522",
          "StreamId": 0,
          "Metadata": "[ONNX Layer: /model.6/cv2/act/Sigmoid]\u001e[ONNX Layer: /model.6/cv2/act/Mul]"
        },
        {
          "Name": "/model.7/conv/Conv",
          "LayerType": "CaskConvolution",
          "Inputs": [
            {
              "Name": "/model.12/Concat_output_0",
              "Location": "Device",
              "Dimensions": [
                1,
                128,
                40,
                40
              ],
              "Datatype": "Float",
              "Format": "(NHWC4) Channel major format where channel % 4 == 0"
            }
          ],
          "Outputs": [
            {
              "Name": "/model.7/conv/Conv_output_0",
              "Location": "Device",
              "Dimensions": [
                1,
                256,
                20,
                20
              ],
              "Datatype": "Float",
              "Format": "(NHWC4) Channel major format where channel % 4 == 0"
            }
          ],
          "ParameterType": "Convolution",
          "Kernel": [
            3,
            3
          ],
          "PaddingMode": "kEXPLICIT_ROUND_DOWN",
          "PrePadding": [
            1,
            1
          ],
          "PostPadding": [
            1,
            1
          ],
          "Stride": [
            2,
            2
          ],
          "Dilation": [
            1,
            1
          ],
          "OutMaps": 256,
          "Groups": 1,
          "Weights": {
            "Type": "Float",
            "Count": 294912
          },
          "Bias": {
            "Type": "Float",
            "Count": 256
          },
          "HasBias": 1,
          "HasReLU": 0,
          "HasSparseWeights": 0,
          "HasDynamicFilter": 0,
          "HasDynamicBias": 0,
          "HasResidual": 0,
          "ConvXAsActInputIdx": -1,
          "BiasAsActInputIdx": -1,
          "ResAsActInputIdx": -1,
          "Activation": "NONE",
          "TacticName": "ampere_scudnn_128x32_sliced1x4_ldg4_relu_exp_small_nhwc_tn_v1",
          "TacticValue": "0x3e2b881168d9689d",
          "StreamId": 0,
          "Metadata": "[ONNX Layer: /model.7/conv/Conv]"
        },
        {
          "Name": "Reformatting CopyNode for Input Tensor 0 to PWN(PWN(/model.7/act/Sigmoid), PWN(/model.7/act/Mul))",
          "LayerType": "NoOp",
          "Inputs": [
            {
              "Name": "/model.7/conv/Conv_output_0",
              "Location": "Device",
              "Dimensions": [
                1,
                256,
                20,
                20
              ],
              "Datatype": "Float",
              "Format": "(NHWC4) Channel major format where channel % 4 == 0"
            }
          ],
          "Outputs": [
            {
              "Name": "Reformatted Input Tensor 0 to PWN(PWN(/model.7/act/Sigmoid), PWN(/model.7/act/Mul))",
              "Location": "Device",
              "Dimensions": [
                1,
                256,
                20,
                20
              ],
              "Datatype": "Float",
              "Format": "(NHWC) Channel major format"
            }
          ],
          "TacticValue": "0x0000000000000000",
          "StreamId": 0,
          "Metadata": ""
        },
        {
          "Name": "__myl_MoveNegExpAddDivMul_myl67_0",
          "LayerType": "kgen",
          "Inputs": [
            {
              "Name": "Reformatted Input Tensor 0 to PWN(PWN(/model.7/act/Sigmoid), PWN(/model.7/act/Mul))",
              "Dimensions": [
                1,
                256,
                20,
                20
              ],
              "Strides": [
                102400,
                1,
                5120,
                256
              ],
              "StrideOrder": [
                3,
                0,
                2,
                1
              ],
              "Datatype": "Float",
              "Format": "(NHWC) Channel major format"
            }
          ],
          "Constants": [],
          "Outputs": [
            {
              "Name": "/model.7/act/Mul_output_0",
              "Dimensions": [
                1,
                256,
                20,
                20
              ],
              "Strides": [
                102400,
                1,
                5120,
                256
              ],
              "StrideOrder": [
                3,
                0,
                2,
                1
              ],
              "Datatype": "Float",
              "Format": "(NHWC) Channel major format"
            }
          ],
          "TacticName": "__myl_MoveNegExpAddDivMul_0x2bf9c8ed7f44b80468594229bec2b6fd",
          "StreamId": 0,
          "Metadata": "[ONNX Layer: /model.7/act/Sigmoid]\u001e[ONNX Layer: /model.7/act/Mul]"
        },
        {
          "Name": "Reformatting CopyNode for Input Tensor 0 to /model.8/cv1/conv/Conv",
          "LayerType": "NoOp",
          "Inputs": [
            {
              "Name": "/model.7/act/Mul_output_0",
              "Location": "Device",
              "Dimensions": [
                1,
                256,
                20,
                20
              ],
              "Datatype": "Float",
              "Format": "(NHWC) Channel major format"
            }
          ],
          "Outputs": [
            {
              "Name": "Reformatted Input Tensor 0 to /model.8/cv1/conv/Conv",
              "Location": "Device",
              "Dimensions": [
                1,
                256,
                20,
                20
              ],
              "Datatype": "Float",
              "Format": "(NHWC4) Channel major format where channel % 4 == 0"
            }
          ],
          "TacticValue": "0x0000000000000000",
          "StreamId": 0,
          "Metadata": ""
        },
        {
          "Name": "/model.8/cv1/conv/Conv",
          "LayerType": "CaskGemmConvolution",
          "Inputs": [
            {
              "Name": "Reformatted Input Tensor 0 to /model.8/cv1/conv/Conv",
              "Location": "Device",
              "Dimensions": [
                1,
                256,
                20,
                20
              ],
              "Datatype": "Float",
              "Format": "(NHWC4) Channel major format where channel % 4 == 0"
            }
          ],
          "Outputs": [
            {
              "Name": "/model.8/cv1/conv/Conv_output_0",
              "Location": "Device",
              "Dimensions": [
                1,
                256,
                20,
                20
              ],
              "Datatype": "Float",
              "Format": "(NHWC4) Channel major format where channel % 4 == 0"
            }
          ],
          "ParameterType": "Convolution",
          "Kernel": [
            1,
            1
          ],
          "PaddingMode": "kEXPLICIT_ROUND_DOWN",
          "PrePadding": [
            0,
            0
          ],
          "PostPadding": [
            0,
            0
          ],
          "Stride": [
            1,
            1
          ],
          "Dilation": [
            1,
            1
          ],
          "OutMaps": 256,
          "Groups": 1,
          "Weights": {
            "Type": "Float",
            "Count": 65536
          },
          "Bias": {
            "Type": "Float",
            "Count": 256
          },
          "HasBias": 1,
          "HasReLU": 0,
          "HasSparseWeights": 0,
          "HasDynamicFilter": 0,
          "HasDynamicBias": 0,
          "HasResidual": 0,
          "ConvXAsActInputIdx": -1,
          "BiasAsActInputIdx": -1,
          "ResAsActInputIdx": -1,
          "Activation": "NONE",
          "TacticName": "sm86_xmma_gemm_f32f32_tf32f32_f32_tn_n_tilesize64x64x64_stage3_warpsize2x2x1_tensor16x8x8",
          "TacticValue": "0x00000000000201b0",
          "StreamId": 0,
          "Metadata": "[ONNX Layer: /model.8/cv1/conv/Conv]"
        },
        {
          "Name": "Reformatting CopyNode for Input Tensor 0 to PWN(PWN(/model.8/cv1/act/Sigmoid), PWN(/model.8/cv1/act/Mul))",
          "LayerType": "NoOp",
          "Inputs": [
            {
              "Name": "/model.8/cv1/conv/Conv_output_0",
              "Location": "Device",
              "Dimensions": [
                1,
                256,
                20,
                20
              ],
              "Datatype": "Float",
              "Format": "(NHWC4) Channel major format where channel % 4 == 0"
            }
          ],
          "Outputs": [
            {
              "Name": "Reformatted Input Tensor 0 to PWN(PWN(/model.8/cv1/act/Sigmoid), PWN(/model.8/cv1/act/Mul))",
              "Location": "Device",
              "Dimensions": [
                1,
                256,
                20,
                20
              ],
              "Datatype": "Float",
              "Format": "(NHWC) Channel major format"
            }
          ],
          "TacticValue": "0x0000000000000000",
          "StreamId": 0,
          "Metadata": ""
        },
        {
          "Name": "__myl_MoveNegExpAddDivMul_myl71_0",
          "LayerType": "kgen",
          "Inputs": [
            {
              "Name": "Reformatted Input Tensor 0 to PWN(PWN(/model.8/cv1/act/Sigmoid), PWN(/model.8/cv1/act/Mul))",
              "Dimensions": [
                1,
                256,
                20,
                20
              ],
              "Strides": [
                102400,
                1,
                5120,
                256
              ],
              "StrideOrder": [
                3,
                0,
                2,
                1
              ],
              "Datatype": "Float",
              "Format": "(NHWC) Channel major format"
            }
          ],
          "Constants": [],
          "Outputs": [
            {
              "Name": "Reformatted Output Tensor 0 to PWN(PWN(/model.8/cv1/act/Sigmoid), PWN(/model.8/cv1/act/Mul))",
              "Dimensions": [
                1,
                256,
                20,
                20
              ],
              "Strides": [
                102400,
                1,
                5120,
                256
              ],
              "StrideOrder": [
                3,
                0,
                2,
                1
              ],
              "Datatype": "Float",
              "Format": "(NHWC) Channel major format"
            }
          ],
          "TacticName": "__myl_MoveNegExpAddDivMul_0x2bf9c8ed7f44b80468594229bec2b6fd",
          "StreamId": 0,
          "Metadata": "[ONNX Layer: /model.8/cv1/act/Sigmoid]\u001e[ONNX Layer: /model.8/cv1/act/Mul]"
        },
        {
          "Name": "Reformatting CopyNode for Output Tensor 0 to PWN(PWN(/model.8/cv1/act/Sigmoid), PWN(/model.8/cv1/act/Mul))",
          "LayerType": "NoOp",
          "Inputs": [
            {
              "Name": "Reformatted Output Tensor 0 to PWN(PWN(/model.8/cv1/act/Sigmoid), PWN(/model.8/cv1/act/Mul))",
              "Location": "Device",
              "Dimensions": [
                1,
                256,
                20,
                20
              ],
              "Datatype": "Float",
              "Format": "(NHWC) Channel major format"
            }
          ],
          "Outputs": [
            {
              "Name": "/model.8/cv1/act/Mul_output_0",
              "Location": "Device",
              "Dimensions": [
                1,
                256,
                20,
                20
              ],
              "Datatype": "Float",
              "Format": "(NHWC4) Channel major format where channel % 4 == 0"
            }
          ],
          "TacticValue": "0x0000000000000000",
          "StreamId": 0,
          "Metadata": ""
        },
        {
          "Name": "/model.8/m.0/cv2/conv/Conv || /model.8/m.0/cv1/conv/Conv",
          "LayerType": "CaskGemmConvolution",
          "Inputs": [
            {
              "Name": "/model.8/cv1/act/Mul_output_0",
              "Location": "Device",
              "Dimensions": [
                1,
                128,
                20,
                20
              ],
              "Datatype": "Float",
              "Format": "(NHWC4) Channel major format where channel % 4 == 0"
            }
          ],
          "Outputs": [
            {
              "Name": "Reformatted Output Tensor 0 to /model.8/m.0/cv2/conv/Conv || /model.8/m.0/cv1/conv/Conv",
              "Location": "Device",
              "Dimensions": [
                1,
                128,
                20,
                20
              ],
              "Datatype": "Float",
              "Format": "(NHWC4) Channel major format where channel % 4 == 0"
            }
          ],
          "ParameterType": "Convolution",
          "Kernel": [
            1,
            1
          ],
          "PaddingMode": "kEXPLICIT_ROUND_DOWN",
          "PrePadding": [
            0,
            0
          ],
          "PostPadding": [
            0,
            0
          ],
          "Stride": [
            1,
            1
          ],
          "Dilation": [
            1,
            1
          ],
          "OutMaps": 128,
          "Groups": 1,
          "Weights": {
            "Type": "Float",
            "Count": 16384
          },
          "Bias": {
            "Type": "Float",
            "Count": 128
          },
          "HasBias": 1,
          "HasReLU": 0,
          "HasSparseWeights": 0,
          "HasDynamicFilter": 0,
          "HasDynamicBias": 0,
          "HasResidual": 0,
          "ConvXAsActInputIdx": -1,
          "BiasAsActInputIdx": -1,
          "ResAsActInputIdx": -1,
          "Activation": "NONE",
          "TacticName": "sm80_xmma_gemm_f32f32_tf32f32_f32_tn_n_tilesize64x32x64_stage4_warpsize2x1x2_tensor16x8x8",
          "TacticValue": "0x0000000000020069",
          "StreamId": 0,
          "Metadata": "[ONNX Layer: /model.8/m.0/cv2/conv/Conv]\u001e[ONNX Layer: /model.8/m.0/cv1/conv/Conv]"
        },
        {
          "Name": "Reformatting CopyNode for Output Tensor 0 to /model.8/m.0/cv2/conv/Conv || /model.8/m.0/cv1/conv/Conv",
          "LayerType": "NoOp",
          "Inputs": [
            {
              "Name": "Reformatted Output Tensor 0 to /model.8/m.0/cv2/conv/Conv || /model.8/m.0/cv1/conv/Conv",
              "Location": "Device",
              "Dimensions": [
                1,
                128,
                20,
                20
              ],
              "Datatype": "Float",
              "Format": "(NHWC4) Channel major format where channel % 4 == 0"
            }
          ],
          "Outputs": [
            {
              "Name": "/model.8/m.0/cv2/conv/Conv || /model.8/m.0/cv1/conv/Conv",
              "Location": "Device",
              "Dimensions": [
                1,
                128,
                20,
                20
              ],
              "Datatype": "Float",
              "Format": "(NHWC) Channel major format"
            }
          ],
          "TacticValue": "0x0000000000000000",
          "StreamId": 0,
          "Metadata": ""
        },
        {
          "Name": "__myl_MoveNegExpAddDivMul_myl75_0",
          "LayerType": "kgen",
          "Inputs": [
            {
              "Name": "/model.8/m.0/cv2/conv/Conv || /model.8/m.0/cv1/conv/Conv",
              "Dimensions": [
                1,
                64,
                20,
                20
              ],
              "Strides": [
                51200,
                1,
                2560,
                128
              ],
              "StrideOrder": [
                3,
                0,
                2,
                1
              ],
              "Datatype": "Float",
              "Format": "(NHWC) Channel major format"
            }
          ],
          "Constants": [],
          "Outputs": [
            {
              "Name": "/model.8/m.0/cv1/act/Mul_output_0",
              "Dimensions": [
                1,
                64,
                20,
                20
              ],
              "Strides": [
                25600,
                1,
                1280,
                64
              ],
              "StrideOrder": [
                3,
                0,
                2,
                1
              ],
              "Datatype": "Float",
              "Format": "(NHWC) Channel major format"
            }
          ],
          "TacticName": "__myl_MoveNegExpAddDivMul_0xf0078ddecdcd254920e8d54ed482970a",
          "StreamId": 0,
          "Metadata": "[ONNX Layer: /model.8/m.0/cv1/act/Sigmoid]\u001e[ONNX Layer: /model.8/m.0/cv1/act/Mul]"
        },
        {
          "Name": "Reformatting CopyNode for Input Tensor 0 to /model.8/m.0/m/m.0/cv1/conv/Conv",
          "LayerType": "NoOp",
          "Inputs": [
            {
              "Name": "/model.8/m.0/cv1/act/Mul_output_0",
              "Location": "Device",
              "Dimensions": [
                1,
                64,
                20,
                20
              ],
              "Datatype": "Float",
              "Format": "(NHWC) Channel major format"
            }
          ],
          "Outputs": [
            {
              "Name": "Reformatted Input Tensor 0 to /model.8/m.0/m/m.0/cv1/conv/Conv",
              "Location": "Device",
              "Dimensions": [
                1,
                64,
                20,
                20
              ],
              "Datatype": "Float",
              "Format": "(NHWC4) Channel major format where channel % 4 == 0"
            }
          ],
          "TacticValue": "0x0000000000000000",
          "StreamId": 0,
          "Metadata": ""
        },
        {
          "Name": "/model.8/m.0/m/m.0/cv1/conv/Conv",
          "LayerType": "CaskConvolution",
          "Inputs": [
            {
              "Name": "Reformatted Input Tensor 0 to /model.8/m.0/m/m.0/cv1/conv/Conv",
              "Location": "Device",
              "Dimensions": [
                1,
                64,
                20,
                20
              ],
              "Datatype": "Float",
              "Format": "(NHWC4) Channel major format where channel % 4 == 0"
            }
          ],
          "Outputs": [
            {
              "Name": "/model.8/m.0/m/m.0/cv1/conv/Conv_output_0",
              "Location": "Device",
              "Dimensions": [
                1,
                64,
                20,
                20
              ],
              "Datatype": "Float",
              "Format": "(NHWC4) Channel major format where channel % 4 == 0"
            }
          ],
          "ParameterType": "Convolution",
          "Kernel": [
            3,
            3
          ],
          "PaddingMode": "kEXPLICIT_ROUND_DOWN",
          "PrePadding": [
            1,
            1
          ],
          "PostPadding": [
            1,
            1
          ],
          "Stride": [
            1,
            1
          ],
          "Dilation": [
            1,
            1
          ],
          "OutMaps": 64,
          "Groups": 1,
          "Weights": {
            "Type": "Float",
            "Count": 36864
          },
          "Bias": {
            "Type": "Float",
            "Count": 64
          },
          "HasBias": 1,
          "HasReLU": 0,
          "HasSparseWeights": 0,
          "HasDynamicFilter": 0,
          "HasDynamicBias": 0,
          "HasResidual": 0,
          "ConvXAsActInputIdx": -1,
          "BiasAsActInputIdx": -1,
          "ResAsActInputIdx": -1,
          "Activation": "NONE",
          "TacticName": "sm80_xmma_fprop_implicit_gemm_indexed_wo_smem_f32f32_tf32f32_f32_nhwckrsc_nhwc_tilesize128x16x64_stage1_warpsize4x1x1_g1_tensor16x8x8",
          "TacticValue": "0x10383a0781d24dde",
          "StreamId": 0,
          "Metadata": "[ONNX Layer: /model.8/m.0/m/m.0/cv1/conv/Conv]"
        },
        {
          "Name": "Reformatting CopyNode for Input Tensor 0 to PWN(PWN(/model.8/m.0/m/m.0/cv1/act/Sigmoid), PWN(/model.8/m.0/m/m.0/cv1/act/Mul))",
          "LayerType": "NoOp",
          "Inputs": [
            {
              "Name": "/model.8/m.0/m/m.0/cv1/conv/Conv_output_0",
              "Location": "Device",
              "Dimensions": [
                1,
                64,
                20,
                20
              ],
              "Datatype": "Float",
              "Format": "(NHWC4) Channel major format where channel % 4 == 0"
            }
          ],
          "Outputs": [
            {
              "Name": "Reformatted Input Tensor 0 to PWN(PWN(/model.8/m.0/m/m.0/cv1/act/Sigmoid), PWN(/model.8/m.0/m/m.0/cv1/act/Mul))",
              "Location": "Device",
              "Dimensions": [
                1,
                64,
                20,
                20
              ],
              "Datatype": "Float",
              "Format": "(NHWC) Channel major format"
            }
          ],
          "TacticValue": "0x0000000000000000",
          "StreamId": 0,
          "Metadata": ""
        },
        {
          "Name": "__myl_MoveNegExpAddDivMul_myl79_0",
          "LayerType": "kgen",
          "Inputs": [
            {
              "Name": "Reformatted Input Tensor 0 to PWN(PWN(/model.8/m.0/m/m.0/cv1/act/Sigmoid), PWN(/model.8/m.0/m/m.0/cv1/act/Mul))",
              "Dimensions": [
                1,
                64,
                20,
                20
              ],
              "Strides": [
                25600,
                1,
                1280,
                64
              ],
              "StrideOrder": [
                3,
                0,
                2,
                1
              ],
              "Datatype": "Float",
              "Format": "(NHWC) Channel major format"
            }
          ],
          "Constants": [],
          "Outputs": [
            {
              "Name": "/model.8/m.0/m/m.0/cv1/act/Mul_output_0",
              "Dimensions": [
                1,
                64,
                20,
                20
              ],
              "Strides": [
                25600,
                1,
                1280,
                64
              ],
              "StrideOrder": [
                3,
                0,
                2,
                1
              ],
              "Datatype": "Float",
              "Format": "(NHWC) Channel major format"
            }
          ],
          "TacticName": "__myl_MoveNegExpAddDivMul_0x522484a609d3df2f05b9d1ac24d5c81c",
          "StreamId": 0,
          "Metadata": "[ONNX Layer: /model.8/m.0/m/m.0/cv1/act/Sigmoid]\u001e[ONNX Layer: /model.8/m.0/m/m.0/cv1/act/Mul]"
        },
        {
          "Name": "Reformatting CopyNode for Input Tensor 0 to /model.8/m.0/m/m.0/cv2/conv/Conv",
          "LayerType": "NoOp",
          "Inputs": [
            {
              "Name": "/model.8/m.0/m/m.0/cv1/act/Mul_output_0",
              "Location": "Device",
              "Dimensions": [
                1,
                64,
                20,
                20
              ],
              "Datatype": "Float",
              "Format": "(NHWC) Channel major format"
            }
          ],
          "Outputs": [
            {
              "Name": "Reformatted Input Tensor 0 to /model.8/m.0/m/m.0/cv2/conv/Conv",
              "Location": "Device",
              "Dimensions": [
                1,
                64,
                20,
                20
              ],
              "Datatype": "Float",
              "Format": "(NHWC4) Channel major format where channel % 4 == 0"
            }
          ],
          "TacticValue": "0x0000000000000000",
          "StreamId": 0,
          "Metadata": ""
        },
        {
          "Name": "/model.8/m.0/m/m.0/cv2/conv/Conv",
          "LayerType": "CaskConvolution",
          "Inputs": [
            {
              "Name": "Reformatted Input Tensor 0 to /model.8/m.0/m/m.0/cv2/conv/Conv",
              "Location": "Device",
              "Dimensions": [
                1,
                64,
                20,
                20
              ],
              "Datatype": "Float",
              "Format": "(NHWC4) Channel major format where channel % 4 == 0"
            }
          ],
          "Outputs": [
            {
              "Name": "/model.8/m.0/m/m.0/cv2/conv/Conv_output_0",
              "Location": "Device",
              "Dimensions": [
                1,
                64,
                20,
                20
              ],
              "Datatype": "Float",
              "Format": "(NHWC4) Channel major format where channel % 4 == 0"
            }
          ],
          "ParameterType": "Convolution",
          "Kernel": [
            3,
            3
          ],
          "PaddingMode": "kEXPLICIT_ROUND_DOWN",
          "PrePadding": [
            1,
            1
          ],
          "PostPadding": [
            1,
            1
          ],
          "Stride": [
            1,
            1
          ],
          "Dilation": [
            1,
            1
          ],
          "OutMaps": 64,
          "Groups": 1,
          "Weights": {
            "Type": "Float",
            "Count": 36864
          },
          "Bias": {
            "Type": "Float",
            "Count": 64
          },
          "HasBias": 1,
          "HasReLU": 0,
          "HasSparseWeights": 0,
          "HasDynamicFilter": 0,
          "HasDynamicBias": 0,
          "HasResidual": 0,
          "ConvXAsActInputIdx": -1,
          "BiasAsActInputIdx": -1,
          "ResAsActInputIdx": -1,
          "Activation": "NONE",
          "TacticName": "sm80_xmma_fprop_implicit_gemm_indexed_wo_smem_f32f32_tf32f32_f32_nhwckrsc_nhwc_tilesize128x16x64_stage1_warpsize4x1x1_g1_tensor16x8x8",
          "TacticValue": "0x10383a0781d24dde",
          "StreamId": 0,
          "Metadata": "[ONNX Layer: /model.8/m.0/m/m.0/cv2/conv/Conv]"
        },
        {
          "Name": "Reformatting CopyNode for Input Tensor 0 to PWN(PWN(PWN(/model.8/m.0/m/m.0/cv2/act/Sigmoid), PWN(/model.8/m.0/m/m.0/cv2/act/Mul)), PWN(/model.8/m.0/m/m.0/Add))",
          "LayerType": "NoOp",
          "Inputs": [
            {
              "Name": "/model.8/m.0/m/m.0/cv2/conv/Conv_output_0",
              "Location": "Device",
              "Dimensions": [
                1,
                64,
                20,
                20
              ],
              "Datatype": "Float",
              "Format": "(NHWC4) Channel major format where channel % 4 == 0"
            }
          ],
          "Outputs": [
            {
              "Name": "Reformatted Input Tensor 0 to PWN(PWN(PWN(/model.8/m.0/m/m.0/cv2/act/Sigmoid), PWN(/model.8/m.0/m/m.0/cv2/act/Mul)), PWN(/model.8/m.0/m/m.0/Add))",
              "Location": "Device",
              "Dimensions": [
                1,
                64,
                20,
                20
              ],
              "Datatype": "Float",
              "Format": "(NHWC) Channel major format"
            }
          ],
          "TacticValue": "0x0000000000000000",
          "StreamId": 0,
          "Metadata": ""
        },
        {
          "Name": "__myl_MoveNegExpAddDivMulAdd_myl83_0",
          "LayerType": "kgen",
          "Inputs": [
            {
              "Name": "/model.8/m.0/cv1/act/Mul_output_0",
              "Dimensions": [
                1,
                64,
                20,
                20
              ],
              "Strides": [
                25600,
                1,
                1280,
                64
              ],
              "StrideOrder": [
                3,
                0,
                2,
                1
              ],
              "Datatype": "Float",
              "Format": "(NHWC) Channel major format"
            },
            {
              "Name": "Reformatted Input Tensor 0 to PWN(PWN(PWN(/model.8/m.0/m/m.0/cv2/act/Sigmoid), PWN(/model.8/m.0/m/m.0/cv2/act/Mul)), PWN(/model.8/m.0/m/m.0/Add))",
              "Dimensions": [
                1,
                64,
                20,
                20
              ],
              "Strides": [
                25600,
                1,
                1280,
                64
              ],
              "StrideOrder": [
                3,
                0,
                2,
                1
              ],
              "Datatype": "Float",
              "Format": "(NHWC) Channel major format"
            }
          ],
          "Constants": [],
          "Outputs": [
            {
              "Name": "/model.8/m.0/m/m.0/Add_output_0",
              "Dimensions": [
                1,
                64,
                20,
                20
              ],
              "Strides": [
                25600,
                1,
                1280,
                64
              ],
              "StrideOrder": [
                3,
                0,
                2,
                1
              ],
              "Datatype": "Float",
              "Format": "(NHWC) Channel major format"
            }
          ],
          "TacticName": "__myl_MoveNegExpAddDivMulAdd_0x461908ce4787cc2a50d0f15a142d86d1",
          "StreamId": 0,
          "Metadata": "[ONNX Layer: /model.8/m.0/m/m.0/cv2/act/Sigmoid]\u001e[ONNX Layer: /model.8/m.0/m/m.0/cv2/act/Mul]\u001e[ONNX Layer: /model.8/m.0/m/m.0/Add]"
        },
        {
          "Name": "Reformatting CopyNode for Input Tensor 0 to /model.8/m.0/m/m.1/cv1/conv/Conv",
          "LayerType": "NoOp",
          "Inputs": [
            {
              "Name": "/model.8/m.0/m/m.0/Add_output_0",
              "Location": "Device",
              "Dimensions": [
                1,
                64,
                20,
                20
              ],
              "Datatype": "Float",
              "Format": "(NHWC) Channel major format"
            }
          ],
          "Outputs": [
            {
              "Name": "Reformatted Input Tensor 0 to /model.8/m.0/m/m.1/cv1/conv/Conv",
              "Location": "Device",
              "Dimensions": [
                1,
                64,
                20,
                20
              ],
              "Datatype": "Float",
              "Format": "(NHWC4) Channel major format where channel % 4 == 0"
            }
          ],
          "TacticValue": "0x0000000000000000",
          "StreamId": 0,
          "Metadata": ""
        },
        {
          "Name": "/model.8/m.0/m/m.1/cv1/conv/Conv",
          "LayerType": "CaskConvolution",
          "Inputs": [
            {
              "Name": "Reformatted Input Tensor 0 to /model.8/m.0/m/m.1/cv1/conv/Conv",
              "Location": "Device",
              "Dimensions": [
                1,
                64,
                20,
                20
              ],
              "Datatype": "Float",
              "Format": "(NHWC4) Channel major format where channel % 4 == 0"
            }
          ],
          "Outputs": [
            {
              "Name": "/model.8/m.0/m/m.1/cv1/conv/Conv_output_0",
              "Location": "Device",
              "Dimensions": [
                1,
                64,
                20,
                20
              ],
              "Datatype": "Float",
              "Format": "(NHWC4) Channel major format where channel % 4 == 0"
            }
          ],
          "ParameterType": "Convolution",
          "Kernel": [
            3,
            3
          ],
          "PaddingMode": "kEXPLICIT_ROUND_DOWN",
          "PrePadding": [
            1,
            1
          ],
          "PostPadding": [
            1,
            1
          ],
          "Stride": [
            1,
            1
          ],
          "Dilation": [
            1,
            1
          ],
          "OutMaps": 64,
          "Groups": 1,
          "Weights": {
            "Type": "Float",
            "Count": 36864
          },
          "Bias": {
            "Type": "Float",
            "Count": 64
          },
          "HasBias": 1,
          "HasReLU": 0,
          "HasSparseWeights": 0,
          "HasDynamicFilter": 0,
          "HasDynamicBias": 0,
          "HasResidual": 0,
          "ConvXAsActInputIdx": -1,
          "BiasAsActInputIdx": -1,
          "ResAsActInputIdx": -1,
          "Activation": "NONE",
          "TacticName": "sm80_xmma_fprop_implicit_gemm_indexed_wo_smem_f32f32_tf32f32_f32_nhwckrsc_nhwc_tilesize128x16x64_stage1_warpsize4x1x1_g1_tensor16x8x8",
          "TacticValue": "0x10383a0781d24dde",
          "StreamId": 0,
          "Metadata": "[ONNX Layer: /model.8/m.0/m/m.1/cv1/conv/Conv]"
        },
        {
          "Name": "Reformatting CopyNode for Input Tensor 0 to PWN(PWN(/model.8/m.0/m/m.1/cv1/act/Sigmoid), PWN(/model.8/m.0/m/m.1/cv1/act/Mul))",
          "LayerType": "NoOp",
          "Inputs": [
            {
              "Name": "/model.8/m.0/m/m.1/cv1/conv/Conv_output_0",
              "Location": "Device",
              "Dimensions": [
                1,
                64,
                20,
                20
              ],
              "Datatype": "Float",
              "Format": "(NHWC4) Channel major format where channel % 4 == 0"
            }
          ],
          "Outputs": [
            {
              "Name": "Reformatted Input Tensor 0 to PWN(PWN(/model.8/m.0/m/m.1/cv1/act/Sigmoid), PWN(/model.8/m.0/m/m.1/cv1/act/Mul))",
              "Location": "Device",
              "Dimensions": [
                1,
                64,
                20,
                20
              ],
              "Datatype": "Float",
              "Format": "(NHWC) Channel major format"
            }
          ],
          "TacticValue": "0x0000000000000000",
          "StreamId": 0,
          "Metadata": ""
        },
        {
          "Name": "__myl_MoveNegExpAddDivMul_myl87_0",
          "LayerType": "kgen",
          "Inputs": [
            {
              "Name": "Reformatted Input Tensor 0 to PWN(PWN(/model.8/m.0/m/m.1/cv1/act/Sigmoid), PWN(/model.8/m.0/m/m.1/cv1/act/Mul))",
              "Dimensions": [
                1,
                64,
                20,
                20
              ],
              "Strides": [
                25600,
                1,
                1280,
                64
              ],
              "StrideOrder": [
                3,
                0,
                2,
                1
              ],
              "Datatype": "Float",
              "Format": "(NHWC) Channel major format"
            }
          ],
          "Constants": [],
          "Outputs": [
            {
              "Name": "/model.8/m.0/m/m.1/cv1/act/Mul_output_0",
              "Dimensions": [
                1,
                64,
                20,
                20
              ],
              "Strides": [
                25600,
                1,
                1280,
                64
              ],
              "StrideOrder": [
                3,
                0,
                2,
                1
              ],
              "Datatype": "Float",
              "Format": "(NHWC) Channel major format"
            }
          ],
          "TacticName": "__myl_MoveNegExpAddDivMul_0x522484a609d3df2f05b9d1ac24d5c81c",
          "StreamId": 0,
          "Metadata": "[ONNX Layer: /model.8/m.0/m/m.1/cv1/act/Sigmoid]\u001e[ONNX Layer: /model.8/m.0/m/m.1/cv1/act/Mul]"
        },
        {
          "Name": "Reformatting CopyNode for Input Tensor 0 to /model.8/m.0/m/m.1/cv2/conv/Conv",
          "LayerType": "NoOp",
          "Inputs": [
            {
              "Name": "/model.8/m.0/m/m.1/cv1/act/Mul_output_0",
              "Location": "Device",
              "Dimensions": [
                1,
                64,
                20,
                20
              ],
              "Datatype": "Float",
              "Format": "(NHWC) Channel major format"
            }
          ],
          "Outputs": [
            {
              "Name": "Reformatted Input Tensor 0 to /model.8/m.0/m/m.1/cv2/conv/Conv",
              "Location": "Device",
              "Dimensions": [
                1,
                64,
                20,
                20
              ],
              "Datatype": "Float",
              "Format": "(NHWC4) Channel major format where channel % 4 == 0"
            }
          ],
          "TacticValue": "0x0000000000000000",
          "StreamId": 0,
          "Metadata": ""
        },
        {
          "Name": "/model.8/m.0/m/m.1/cv2/conv/Conv",
          "LayerType": "CaskConvolution",
          "Inputs": [
            {
              "Name": "Reformatted Input Tensor 0 to /model.8/m.0/m/m.1/cv2/conv/Conv",
              "Location": "Device",
              "Dimensions": [
                1,
                64,
                20,
                20
              ],
              "Datatype": "Float",
              "Format": "(NHWC4) Channel major format where channel % 4 == 0"
            }
          ],
          "Outputs": [
            {
              "Name": "/model.8/m.0/m/m.1/cv2/conv/Conv_output_0",
              "Location": "Device",
              "Dimensions": [
                1,
                64,
                20,
                20
              ],
              "Datatype": "Float",
              "Format": "(NHWC4) Channel major format where channel % 4 == 0"
            }
          ],
          "ParameterType": "Convolution",
          "Kernel": [
            3,
            3
          ],
          "PaddingMode": "kEXPLICIT_ROUND_DOWN",
          "PrePadding": [
            1,
            1
          ],
          "PostPadding": [
            1,
            1
          ],
          "Stride": [
            1,
            1
          ],
          "Dilation": [
            1,
            1
          ],
          "OutMaps": 64,
          "Groups": 1,
          "Weights": {
            "Type": "Float",
            "Count": 36864
          },
          "Bias": {
            "Type": "Float",
            "Count": 64
          },
          "HasBias": 1,
          "HasReLU": 0,
          "HasSparseWeights": 0,
          "HasDynamicFilter": 0,
          "HasDynamicBias": 0,
          "HasResidual": 0,
          "ConvXAsActInputIdx": -1,
          "BiasAsActInputIdx": -1,
          "ResAsActInputIdx": -1,
          "Activation": "NONE",
          "TacticName": "sm80_xmma_fprop_implicit_gemm_indexed_wo_smem_f32f32_tf32f32_f32_nhwckrsc_nhwc_tilesize128x16x64_stage1_warpsize4x1x1_g1_tensor16x8x8",
          "TacticValue": "0x10383a0781d24dde",
          "StreamId": 0,
          "Metadata": "[ONNX Layer: /model.8/m.0/m/m.1/cv2/conv/Conv]"
        },
        {
          "Name": "__myl_MoveNegExpAddDivMul_myl90_0",
          "LayerType": "kgen",
          "Inputs": [
            {
              "Name": "/model.8/m.0/cv2/conv/Conv || /model.8/m.0/cv1/conv/Conv",
              "Dimensions": [
                1,
                64,
                20,
                20
              ],
              "Strides": [
                51200,
                1,
                2560,
                128
              ],
              "StrideOrder": [
                3,
                0,
                2,
                1
              ],
              "Datatype": "Float",
              "Format": "(NHWC) Channel major format"
            }
          ],
          "Constants": [],
          "Outputs": [
            {
              "Name": "/model.8/m.0/Concat_output_0",
              "Dimensions": [
                1,
                64,
                20,
                20
              ],
              "Strides": [
                51200,
                1,
                2560,
                128
              ],
              "StrideOrder": [
                3,
                0,
                2,
                1
              ],
              "Datatype": "Float",
              "Format": "(NHWC) Channel major format"
            }
          ],
          "TacticName": "__myl_MoveNegExpAddDivMul_0xa8b2a188c614b3b09875306aea2e5b4e",
          "StreamId": 0,
          "Metadata": "[ONNX Layer: /model.8/m.0/cv2/act/Sigmoid]\u001e[ONNX Layer: /model.8/m.0/cv2/act/Mul]"
        },
        {
          "Name": "Reformatting CopyNode for Input Tensor 0 to PWN(PWN(PWN(/model.8/m.0/m/m.1/cv2/act/Sigmoid), PWN(/model.8/m.0/m/m.1/cv2/act/Mul)), PWN(/model.8/m.0/m/m.1/Add))",
          "LayerType": "NoOp",
          "Inputs": [
            {
              "Name": "/model.8/m.0/m/m.1/cv2/conv/Conv_output_0",
              "Location": "Device",
              "Dimensions": [
                1,
                64,
                20,
                20
              ],
              "Datatype": "Float",
              "Format": "(NHWC4) Channel major format where channel % 4 == 0"
            }
          ],
          "Outputs": [
            {
              "Name": "Reformatted Input Tensor 0 to PWN(PWN(PWN(/model.8/m.0/m/m.1/cv2/act/Sigmoid), PWN(/model.8/m.0/m/m.1/cv2/act/Mul)), PWN(/model.8/m.0/m/m.1/Add))",
              "Location": "Device",
              "Dimensions": [
                1,
                64,
                20,
                20
              ],
              "Datatype": "Float",
              "Format": "(NHWC) Channel major format"
            }
          ],
          "TacticValue": "0x0000000000000000",
          "StreamId": 0,
          "Metadata": ""
        },
        {
          "Name": "__myl_MoveNegExpAddDivMulAdd_myl92_0",
          "LayerType": "kgen",
          "Inputs": [
            {
              "Name": "/model.8/m.0/m/m.0/Add_output_0",
              "Dimensions": [
                1,
                64,
                20,
                20
              ],
              "Strides": [
                25600,
                1,
                1280,
                64
              ],
              "StrideOrder": [
                3,
                0,
                2,
                1
              ],
              "Datatype": "Float",
              "Format": "(NHWC) Channel major format"
            },
            {
              "Name": "Reformatted Input Tensor 0 to PWN(PWN(PWN(/model.8/m.0/m/m.1/cv2/act/Sigmoid), PWN(/model.8/m.0/m/m.1/cv2/act/Mul)), PWN(/model.8/m.0/m/m.1/Add))",
              "Dimensions": [
                1,
                64,
                20,
                20
              ],
              "Strides": [
                25600,
                1,
                1280,
                64
              ],
              "StrideOrder": [
                3,
                0,
                2,
                1
              ],
              "Datatype": "Float",
              "Format": "(NHWC) Channel major format"
            }
          ],
          "Constants": [],
          "Outputs": [
            {
              "Name": "/model.8/m.0/Concat_output_0",
              "Dimensions": [
                1,
                64,
                20,
                20
              ],
              "Strides": [
                51200,
                1,
                2560,
                128
              ],
              "StrideOrder": [
                3,
                0,
                2,
                1
              ],
              "Datatype": "Float",
              "Format": "(NHWC) Channel major format"
            }
          ],
          "TacticName": "__myl_MoveNegExpAddDivMulAdd_0x7f959de0549e41da9aa0a7aa4ada2e5f",
          "StreamId": 0,
          "Metadata": "[ONNX Layer: /model.8/m.0/m/m.1/cv2/act/Sigmoid]\u001e[ONNX Layer: /model.8/m.0/m/m.1/cv2/act/Mul]\u001e[ONNX Layer: /model.8/m.0/m/m.1/Add]"
        },
        {
          "Name": "Reformatting CopyNode for Input Tensor 0 to /model.8/m.0/cv3/conv/Conv",
          "LayerType": "NoOp",
          "Inputs": [
            {
              "Name": "/model.8/m.0/Concat_output_0",
              "Location": "Device",
              "Dimensions": [
                1,
                128,
                20,
                20
              ],
              "Datatype": "Float",
              "Format": "(NHWC) Channel major format"
            }
          ],
          "Outputs": [
            {
              "Name": "Reformatted Input Tensor 0 to /model.8/m.0/cv3/conv/Conv",
              "Location": "Device",
              "Dimensions": [
                1,
                128,
                20,
…
          "Inputs": [
            {
              "Name": "/model.23/cv3.2/cv3.2.0/cv3.2.0.1/conv/Conv_output_0",
              "Location": "Device",
              "Dimensions": [
                1,
                64,
                20,
                20
              ],
              "Datatype": "Float",
              "Format": "(NHWC4) Channel major format where channel % 4 == 0"
            }
          ],
          "Outputs": [
            {
              "Name": "Reformatted Input Tensor 0 to PWN(PWN(/model.23/cv3.2/cv3.2.0/cv3.2.0.1/act/Sigmoid), PWN(/model.23/cv3.2/cv3.2.0/cv3.2.0.1/act/Mul))",
              "Location": "Device",
              "Dimensions": [
                1,
                64,
                20,
                20
              ],
              "Datatype": "Float",
              "Format": "(NHWC) Channel major format"
            }
          ],
          "TacticValue": "0x0000000000000000",
          "StreamId": 0,
          "Metadata": ""
        },
        {
          "Name": "__myl_MoveNegExpAddDivMul_myl279_0",
          "LayerType": "kgen",
          "Inputs": [
            {
              "Name": "Reformatted Input Tensor 0 to PWN(PWN(/model.23/cv3.2/cv3.2.0/cv3.2.0.1/act/Sigmoid), PWN(/model.23/cv3.2/cv3.2.0/cv3.2.0.1/act/Mul))",
              "Dimensions": [
                1,
                64,
                20,
                20
              ],
              "Strides": [
                25600,
                1,
                1280,
                64
              ],
              "StrideOrder": [
                3,
                0,
                2,
                1
              ],
              "Datatype": "Float",
              "Format": "(NHWC) Channel major format"
            }
          ],
          "Constants": [],
          "Outputs": [
            {
              "Name": "/model.23/cv3.2/cv3.2.0/cv3.2.0.1/act/Mul_output_0",
              "Dimensions": [
                1,
                64,
                20,
                20
              ],
              "Strides": [
                25600,
                1,
                1280,
                64
              ],
              "StrideOrder": [
                3,
                0,
                2,
                1
              ],
              "Datatype": "Float",
              "Format": "(NHWC) Channel major format"
            }
          ],
          "TacticName": "__myl_MoveNegExpAddDivMul_0x522484a609d3df2f05b9d1ac24d5c81c",
          "StreamId": 0,
          "Metadata": "[ONNX Layer: /model.23/cv3.2/cv3.2.0/cv3.2.0.1/act/Sigmoid]\u001e[ONNX Layer: /model.23/cv3.2/cv3.2.0/cv3.2.0.1/act/Mul]"
        },
        {
          "Name": "Reformatting CopyNode for Input Tensor 0 to /model.23/cv3.2/cv3.2.1/cv3.2.1.0/conv/Conv",
          "LayerType": "NoOp",
          "Inputs": [
            {
              "Name": "/model.23/cv3.2/cv3.2.0/cv3.2.0.1/act/Mul_output_0",
              "Location": "Device",
              "Dimensions": [
                1,
                64,
                20,
                20
              ],
              "Datatype": "Float",
              "Format": "(NHWC) Channel major format"
            }
          ],
          "Outputs": [
            {
              "Name": "Reformatted Input Tensor 0 to /model.23/cv3.2/cv3.2.1/cv3.2.1.0/conv/Conv",
              "Location": "Device",
              "Dimensions": [
                1,
                64,
                20,
                20
              ],
              "Datatype": "Float",
              "Format": "(NHWC4) Channel major format where channel % 4 == 0"
            }
          ],
          "TacticValue": "0x0000000000000000",
          "StreamId": 0,
          "Metadata": ""
        },
        {
          "Name": "/model.23/cv3.2/cv3.2.1/cv3.2.1.0/conv/Conv",
          "LayerType": "CaskConvolution",
          "Inputs": [
            {
              "Name": "Reformatted Input Tensor 0 to /model.23/cv3.2/cv3.2.1/cv3.2.1.0/conv/Conv",
              "Location": "Device",
              "Dimensions": [
                1,
                64,
                20,
                20
              ],
              "Datatype": "Float",
              "Format": "(NHWC4) Channel major format where channel % 4 == 0"
            }
          ],
          "Outputs": [
            {
              "Name": "/model.23/cv3.2/cv3.2.1/cv3.2.1.0/conv/Conv_output_0",
              "Location": "Device",
              "Dimensions": [
                1,
                64,
                20,
                20
              ],
              "Datatype": "Float",
              "Format": "(NHWC4) Channel major format where channel % 4 == 0"
            }
          ],
          "ParameterType": "Convolution",
          "Kernel": [
            3,
            3
          ],
          "PaddingMode": "kEXPLICIT_ROUND_DOWN",
          "PrePadding": [
            1,
            1
          ],
          "PostPadding": [
            1,
            1
          ],
          "Stride": [
            1,
            1
          ],
          "Dilation": [
            1,
            1
          ],
          "OutMaps": 64,
          "Groups": 64,
          "Weights": {
            "Type": "Float",
            "Count": 576
          },
          "Bias": {
            "Type": "Float",
            "Count": 64
          },
          "HasBias": 1,
          "HasReLU": 0,
          "HasSparseWeights": 0,
          "HasDynamicFilter": 0,
          "HasDynamicBias": 0,
          "HasResidual": 0,
          "ConvXAsActInputIdx": -1,
          "BiasAsActInputIdx": -1,
          "ResAsActInputIdx": -1,
          "Activation": "NONE",
          "TacticName": "sm50_xmma_fprop_conv3d_c1_k1_f32f32_f32_f32_ndhwcktrsc_ndhwc_tilesize64x8_threadsize64x2_general_alignC4",
          "TacticValue": "0xf7bc7502ac7dff9b",
          "StreamId": 0,
          "Metadata": "[ONNX Layer: /model.23/cv3.2/cv3.2.1/cv3.2.1.0/conv/Conv]"
        },
        {
          "Name": "/model.23/cv2.2/cv2.2.2/Conv",
          "LayerType": "CaskConvolution",
          "Inputs": [
            {
              "Name": "/model.23/cv2.2/cv2.2.1/act/Mul_output_0",
              "Location": "Device",
              "Dimensions": [
                1,
                64,
                20,
                20
              ],
              "Datatype": "Float",
              "Format": "(Linear) Row major linear format"
            }
          ],
          "Outputs": [
            {
              "Name": "/model.23/cv2.2/cv2.2.2/Conv_output_0",
              "Location": "Device",
              "Dimensions": [
                1,
                64,
                20,
                20
              ],
              "Datatype": "Float",
              "Format": "(Linear) Row major linear format"
            }
          ],
          "ParameterType": "Convolution",
          "Kernel": [
            1,
            1
          ],
          "PaddingMode": "kEXPLICIT_ROUND_DOWN",
          "PrePadding": [
            0,
            0
          ],
          "PostPadding": [
            0,
            0
          ],
          "Stride": [
            1,
            1
          ],
          "Dilation": [
            1,
            1
          ],
          "OutMaps": 64,
          "Groups": 1,
          "Weights": {
            "Type": "Float",
            "Count": 4096
          },
          "Bias": {
            "Type": "Float",
            "Count": 64
          },
          "HasBias": 1,
          "HasReLU": 0,
          "HasSparseWeights": 0,
          "HasDynamicFilter": 0,
          "HasDynamicBias": 0,
          "HasResidual": 0,
          "ConvXAsActInputIdx": -1,
          "BiasAsActInputIdx": -1,
          "ResAsActInputIdx": -1,
          "Activation": "NONE",
          "TacticName": "sm80_xmma_fprop_implicit_gemm_f32f32_f32f32_f32_nchwkcrs_nchw_tilesize32x32x8_stage3_warpsize1x2x1_g1_ffma_aligna4_alignc4",
          "TacticValue": "0xb0bf940d5e0f9f45",
          "StreamId": 0,
          "Metadata": "[ONNX Layer: /model.23/cv2.2/cv2.2.2/Conv]"
        },
        {
          "Name": "/model.23/Reshape",
          "LayerType": "NoOp",
          "Inputs": [
            {
              "Name": "/model.23/cv2.0/cv2.0.2/Conv_output_0",
              "Location": "Device",
              "Dimensions": [
                1,
                64,
                80,
                80
              ],
              "Datatype": "Float",
              "Format": "(Linear) Row major linear format"
            }
          ],
          "Outputs": [
            {
              "Name": "/model.23/Reshape_copy_output",
              "Location": "Device",
              "Dimensions": [
                1,
                64,
                6400
              ],
              "Datatype": "Float",
              "Format": "(Linear) Row major linear format"
            }
          ],
          "TacticValue": "0x0000000000000000",
          "StreamId": 0,
          "Metadata": "[ONNX Layer: /model.23/Reshape]"
        },
        {
          "Name": "/model.23/Reshape_copy_output",
          "LayerType": "Reformat",
          "Inputs": [
            {
              "Name": "/model.23/Reshape_copy_output",
              "Location": "Device",
              "Dimensions": [
                1,
                64,
                6400
              ],
              "Datatype": "Float",
              "Format": "(Linear) Row major linear format"
            }
          ],
          "Outputs": [
            {
              "Name": "/model.23/Concat_output_0",
              "Location": "Device",
              "Dimensions": [
                1,
                64,
                6400
              ],
              "Datatype": "Float",
              "Format": "(Linear) Row major linear format"
            }
          ],
          "ParameterType": "Reformat",
          "Origin": "CONCAT",
          "TacticValue": "0x0000000000000000",
          "StreamId": 0,
          "Metadata": "[ONNX Layer: /model.23/Reshape]"
        },
        {
          "Name": "/model.23/Reshape_1",
          "LayerType": "NoOp",
          "Inputs": [
            {
              "Name": "/model.23/cv2.1/cv2.1.2/Conv_output_0",
              "Location": "Device",
              "Dimensions": [
                1,
                64,
                40,
                40
              ],
              "Datatype": "Float",
              "Format": "(Linear) Row major linear format"
            }
          ],
          "Outputs": [
            {
              "Name": "/model.23/Reshape_1_copy_output",
              "Location": "Device",
              "Dimensions": [
                1,
                64,
                1600
              ],
              "Datatype": "Float",
              "Format": "(Linear) Row major linear format"
            }
          ],
          "TacticValue": "0x0000000000000000",
          "StreamId": 0,
          "Metadata": "[ONNX Layer: /model.23/Reshape_1]"
        },
        {
          "Name": "/model.23/Reshape_1_copy_output",
          "LayerType": "Reformat",
          "Inputs": [
            {
              "Name": "/model.23/Reshape_1_copy_output",
              "Location": "Device",
              "Dimensions": [
                1,
                64,
                1600
              ],
              "Datatype": "Float",
              "Format": "(Linear) Row major linear format"
            }
          ],
          "Outputs": [
            {
              "Name": "/model.23/Concat_output_0",
              "Location": "Device",
              "Dimensions": [
                1,
                64,
                1600
              ],
              "Datatype": "Float",
              "Format": "(Linear) Row major linear format"
            }
          ],
          "ParameterType": "Reformat",
          "Origin": "CONCAT",
          "TacticValue": "0x0000000000000000",
          "StreamId": 0,
          "Metadata": "[ONNX Layer: /model.23/Reshape_1]"
        },
        {
          "Name": "/model.23/Reshape_2",
          "LayerType": "NoOp",
          "Inputs": [
            {
              "Name": "/model.23/cv2.2/cv2.2.2/Conv_output_0",
              "Location": "Device",
              "Dimensions": [
                1,
                64,
                20,
                20
              ],
              "Datatype": "Float",
              "Format": "(Linear) Row major linear format"
            }
          ],
          "Outputs": [
            {
              "Name": "/model.23/Reshape_2_copy_output",
              "Location": "Device",
              "Dimensions": [
                1,
                64,
                400
              ],
              "Datatype": "Float",
              "Format": "(Linear) Row major linear format"
            }
          ],
          "TacticValue": "0x0000000000000000",
          "StreamId": 0,
          "Metadata": "[ONNX Layer: /model.23/Reshape_2]"
        },
        {
          "Name": "/model.23/Reshape_2_copy_output",
          "LayerType": "Reformat",
          "Inputs": [
            {
              "Name": "/model.23/Reshape_2_copy_output",
              "Location": "Device",
              "Dimensions": [
                1,
                64,
                400
              ],
              "Datatype": "Float",
              "Format": "(Linear) Row major linear format"
            }
          ],
          "Outputs": [
            {
              "Name": "/model.23/Concat_output_0",
              "Location": "Device",
              "Dimensions": [
                1,
                64,
                400
              ],
              "Datatype": "Float",
              "Format": "(Linear) Row major linear format"
            }
          ],
          "ParameterType": "Reformat",
          "Origin": "CONCAT",
          "TacticValue": "0x0000000000000000",
          "StreamId": 0,
          "Metadata": "[ONNX Layer: /model.23/Reshape_2]"
        },
        {
          "Name": "/model.23/dfl/Reshape + /model.23/dfl/Transpose",
          "LayerType": "Shuffle",
          "Inputs": [
            {
              "Name": "/model.23/Concat_output_0",
              "Location": "Device",
              "Dimensions": [
                1,
                64,
                8400
              ],
              "Datatype": "Float",
              "Format": "(Linear) Row major linear format"
            }
          ],
          "Outputs": [
            {
              "Name": "/model.23/dfl/Transpose_output_0",
              "Location": "Device",
              "Dimensions": [
                1,
                16,
                4,
                8400
              ],
              "Datatype": "Float",
              "Format": "(Linear) Row major linear format"
            }
          ],
          "ParameterType": "Shuffle",
          "FirstTranspose": [
            0,
            1,
            2
          ],
          "Reshape": [
            1,
            4,
            16,
            8400
          ],
          "SecondTranspose": [
            0,
            2,
            1,
            3
          ],
          "ZeroIsPlaceholder": 1,
          "TacticValue": "0x0000000000000000",
          "StreamId": 0,
          "Metadata": "[ONNX Layer: /model.23/dfl/Reshape]\u001e[ONNX Layer: /model.23/dfl/Transpose]"
        },
        {
          "Name": "/model.23/dfl/Softmax",
          "LayerType": "CaskSoftMaxV2",
          "Inputs": [
            {
              "Name": "/model.23/dfl/Transpose_output_0",
              "Location": "Device",
              "Dimensions": [
                1,
                16,
                4,
                8400
              ],
              "Datatype": "Float",
              "Format": "(Linear) Row major linear format"
            }
          ],
          "Outputs": [
            {
              "Name": "(Unnamed Layer* 315) [Softmax]_output",
              "Location": "Device",
              "Dimensions": [
                1,
                16,
                4,
                8400
              ],
              "Datatype": "Float",
              "Format": "(Linear) Row major linear format"
            }
          ],
          "ParameterType": "SoftMax",
          "Axes": 2,
          "HasLog": 0,
          "TacticValue": "0x48c115a824ac468d",
          "StreamId": 0,
          "Metadata": "[ONNX Layer: /model.23/dfl/Softmax]"
        },
        {
          "Name": "Reformatting CopyNode for Input Tensor 0 to PWN(PWN(/model.23/cv3.2/cv3.2.1/cv3.2.1.0/act/Sigmoid), PWN(/model.23/cv3.2/cv3.2.1/cv3.2.1.0/act/Mul))",
          "LayerType": "NoOp",
          "Inputs": [
            {
              "Name": "/model.23/cv3.2/cv3.2.1/cv3.2.1.0/conv/Conv_output_0",
              "Location": "Device",
              "Dimensions": [
                1,
                64,
                20,
                20
              ],
              "Datatype": "Float",
              "Format": "(NHWC4) Channel major format where channel % 4 == 0"
            }
          ],
          "Outputs": [
            {
              "Name": "Reformatted Input Tensor 0 to PWN(PWN(/model.23/cv3.2/cv3.2.1/cv3.2.1.0/act/Sigmoid), PWN(/model.23/cv3.2/cv3.2.1/cv3.2.1.0/act/Mul))",
              "Location": "Device",
              "Dimensions": [
                1,
                64,
                20,
                20
              ],
              "Datatype": "Float",
              "Format": "(NHWC) Channel major format"
            }
          ],
          "TacticValue": "0x0000000000000000",
          "StreamId": 0,
          "Metadata": ""
        },
        {
          "Name": "__myl_MoveNegExpAddDivMul_myl292_0",
          "LayerType": "kgen",
          "Inputs": [
            {
              "Name": "Reformatted Input Tensor 0 to PWN(PWN(/model.23/cv3.2/cv3.2.1/cv3.2.1.0/act/Sigmoid), PWN(/model.23/cv3.2/cv3.2.1/cv3.2.1.0/act/Mul))",
              "Dimensions": [
                1,
                64,
                20,
                20
              ],
              "Strides": [
                25600,
                1,
                1280,
                64
              ],
              "StrideOrder": [
                3,
                0,
                2,
                1
              ],
              "Datatype": "Float",
              "Format": "(NHWC) Channel major format"
            }
          ],
          "Constants": [],
          "Outputs": [
            {
              "Name": "/model.23/cv3.2/cv3.2.1/cv3.2.1.0/act/Mul_output_0",
              "Dimensions": [
                1,
                64,
                20,
                20
              ],
              "Strides": [
                25600,
                1,
                1280,
                64
              ],
              "StrideOrder": [
                3,
                0,
                2,
                1
              ],
              "Datatype": "Float",
              "Format": "(NHWC) Channel major format"
            }
          ],
          "TacticName": "__myl_MoveNegExpAddDivMul_0x522484a609d3df2f05b9d1ac24d5c81c",
          "StreamId": 0,
          "Metadata": "[ONNX Layer: /model.23/cv3.2/cv3.2.1/cv3.2.1.0/act/Sigmoid]\u001e[ONNX Layer: /model.23/cv3.2/cv3.2.1/cv3.2.1.0/act/Mul]"
        },
        {
          "Name": "Reformatting CopyNode for Input Tensor 0 to /model.23/cv3.2/cv3.2.1/cv3.2.1.1/conv/Conv",
          "LayerType": "NoOp",
          "Inputs": [
            {
              "Name": "/model.23/cv3.2/cv3.2.1/cv3.2.1.0/act/Mul_output_0",
              "Location": "Device",
              "Dimensions": [
                1,
                64,
                20,
                20
              ],
              "Datatype": "Float",
              "Format": "(NHWC) Channel major format"
            }
          ],
          "Outputs": [
            {
              "Name": "Reformatted Input Tensor 0 to /model.23/cv3.2/cv3.2.1/cv3.2.1.1/conv/Conv",
              "Location": "Device",
              "Dimensions": [
                1,
                64,
                20,
                20
              ],
              "Datatype": "Float",
              "Format": "(NHWC4) Channel major format where channel % 4 == 0"
            }
          ],
          "TacticValue": "0x0000000000000000",
          "StreamId": 0,
          "Metadata": ""
        },
        {
          "Name": "/model.23/cv3.2/cv3.2.1/cv3.2.1.1/conv/Conv",
          "LayerType": "CaskConvolution",
          "Inputs": [
            {
              "Name": "Reformatted Input Tensor 0 to /model.23/cv3.2/cv3.2.1/cv3.2.1.1/conv/Conv",
              "Location": "Device",
              "Dimensions": [
                1,
                64,
                20,
                20
              ],
              "Datatype": "Float",
              "Format": "(NHWC4) Channel major format where channel % 4 == 0"
            }
          ],
          "Outputs": [
            {
              "Name": "/model.23/cv3.2/cv3.2.1/cv3.2.1.1/conv/Conv_output_0",
              "Location": "Device",
              "Dimensions": [
                1,
                64,
                20,
                20
              ],
              "Datatype": "Float",
              "Format": "(NHWC4) Channel major format where channel % 4 == 0"
            }
          ],
          "ParameterType": "Convolution",
          "Kernel": [
            1,
            1
          ],
          "PaddingMode": "kEXPLICIT_ROUND_DOWN",
          "PrePadding": [
            0,
            0
          ],
          "PostPadding": [
            0,
            0
          ],
          "Stride": [
            1,
            1
          ],
          "Dilation": [
            1,
            1
          ],
          "OutMaps": 64,
          "Groups": 1,
          "Weights": {
            "Type": "Float",
            "Count": 4096
          },
          "Bias": {
            "Type": "Float",
            "Count": 64
          },
          "HasBias": 1,
          "HasReLU": 0,
          "HasSparseWeights": 0,
          "HasDynamicFilter": 0,
          "HasDynamicBias": 0,
          "HasResidual": 0,
          "ConvXAsActInputIdx": -1,
          "BiasAsActInputIdx": -1,
          "ResAsActInputIdx": -1,
          "Activation": "NONE",
          "TacticName": "sm80_xmma_fprop_implicit_gemm_indexed_wo_smem_f32f32_tf32f32_f32_nhwckrsc_nhwc_tilesize128x16x64_stage1_warpsize4x1x1_g1_tensor16x8x8",
          "TacticValue": "0x10383a0781d24dde",
          "StreamId": 0,
          "Metadata": "[ONNX Layer: /model.23/cv3.2/cv3.2.1/cv3.2.1.1/conv/Conv]"
        },
        {
          "Name": "/model.23/dfl/conv/Conv",
          "LayerType": "CaskConvolution",
          "Inputs": [
            {
              "Name": "(Unnamed Layer* 315) [Softmax]_output",
              "Location": "Device",
              "Dimensions": [
                1,
                16,
                4,
                8400
              ],
              "Datatype": "Float",
              "Format": "(Linear) Row major linear format"
            }
          ],
          "Outputs": [
            {
              "Name": "/model.23/dfl/conv/Conv_output_0",
              "Location": "Device",
              "Dimensions": [
                1,
                1,
                4,
                8400
              ],
              "Datatype": "Float",
              "Format": "(Linear) Row major linear format"
            }
          ],
          "ParameterType": "Convolution",
          "Kernel": [
            1,
            1
          ],
          "PaddingMode": "kEXPLICIT_ROUND_DOWN",
          "PrePadding": [
            0,
            0
          ],
          "PostPadding": [
            0,
            0
          ],
          "Stride": [
            1,
            1
          ],
          "Dilation": [
            1,
            1
          ],
          "OutMaps": 1,
          "Groups": 1,
          "Weights": {
            "Type": "Float",
            "Count": 16
          },
          "Bias": {
            "Type": "Float",
            "Count": 0
          },
          "HasBias": 0,
          "HasReLU": 0,
          "HasSparseWeights": 0,
          "HasDynamicFilter": 0,
          "HasDynamicBias": 0,
          "HasResidual": 0,
          "ConvXAsActInputIdx": -1,
          "BiasAsActInputIdx": -1,
          "ResAsActInputIdx": -1,
          "Activation": "NONE",
          "TacticName": "sm80_xmma_fprop_implicit_gemm_f32f32_f32f32_f32_nchwkcrs_nchw_tilesize128x16x8_stage3_warpsize4x1x1_g1_ffma_aligna4_alignc4",
          "TacticValue": "0x9d9fdb5fd9945f64",
          "StreamId": 0,
          "Metadata": "[ONNX Layer: /model.23/dfl/conv/Conv]"
        },
        {
          "Name": "/model.23/dfl/Reshape_1",
          "LayerType": "NoOp",
          "Inputs": [
            {
              "Name": "/model.23/dfl/conv/Conv_output_0",
              "Location": "Device",
              "Dimensions": [
                1,
                1,
                4,
                8400
              ],
              "Datatype": "Float",
              "Format": "(Linear) Row major linear format"
            }
          ],
          "Outputs": [
            {
              "Name": "/model.23/dfl/Reshape_1_output_0",
              "Location": "Device",
              "Dimensions": [
                1,
                4,
                8400
              ],
              "Datatype": "Float",
              "Format": "(Linear) Row major linear format"
            }
          ],
          "TacticValue": "0x0000000000000000",
          "StreamId": 0,
          "Metadata": "[ONNX Layer: /model.23/dfl/Reshape_1]"
        },
        {
          "Name": "/model.23/Constant_12_output_0",
          "LayerType": "Constant",
          "Inputs": [],
          "Outputs": [
            {
              "Name": "(Unnamed Layer* 376) [Constant]_output",
              "Location": "Device",
              "Dimensions": [
                1,
                2,
                8400
              ],
              "Datatype": "Float",
              "Format": "(Linear) Row major linear format"
            }
          ],
          "ParameterType": "Constant",
          "weights": {
            "Type": "Float",
            "Count": 16800
          },
          "dimensions": [
            1,
            2,
            8400
          ],
          "TacticValue": "0x0000000000000000",
          "StreamId": 0,
          "Metadata": ""
        },
        {
          "Name": "/model.23/Constant_13_output_0",
          "LayerType": "Constant",
          "Inputs": [],
          "Outputs": [
            {
              "Name": "(Unnamed Layer* 378) [Constant]_output",
              "Location": "Device",
              "Dimensions": [
                1,
                2,
                8400
              ],
              "Datatype": "Float",
              "Format": "(Linear) Row major linear format"
            }
          ],
          "ParameterType": "Constant",
          "weights": {
            "Type": "Float",
            "Count": 16800
          },
          "dimensions": [
            1,
            2,
            8400
          ],
          "TacticValue": "0x0000000000000000",
          "StreamId": 0,
          "Metadata": ""
        },
        {
          "Name": "Reformatting CopyNode for Input Tensor 0 to PWN(PWN(/model.23/cv3.2/cv3.2.1/cv3.2.1.1/act/Sigmoid), PWN(/model.23/cv3.2/cv3.2.1/cv3.2.1.1/act/Mul))",
          "LayerType": "NoOp",
          "Inputs": [
            {
              "Name": "/model.23/cv3.2/cv3.2.1/cv3.2.1.1/conv/Conv_output_0",
              "Location": "Device",
              "Dimensions": [
                1,
                64,
                20,
                20
              ],
              "Datatype": "Float",
              "Format": "(NHWC4) Channel major format where channel % 4 == 0"
            }
          ],
          "Outputs": [
            {
              "Name": "Reformatted Input Tensor 0 to PWN(PWN(/model.23/cv3.2/cv3.2.1/cv3.2.1.1/act/Sigmoid), PWN(/model.23/cv3.2/cv3.2.1/cv3.2.1.1/act/Mul))",
              "Location": "Device",
              "Dimensions": [
                1,
                64,
                20,
                20
              ],
              "Datatype": "Float",
              "Format": "(NHWC) Channel major format"
            }
          ],
          "TacticValue": "0x0000000000000000",
          "StreamId": 0,
          "Metadata": ""
        },
        {
          "Name": "__myl_MoveNegExpAddDivMul_myl300_0",
          "LayerType": "kgen",
          "Inputs": [
            {
              "Name": "Reformatted Input Tensor 0 to PWN(PWN(/model.23/cv3.2/cv3.2.1/cv3.2.1.1/act/Sigmoid), PWN(/model.23/cv3.2/cv3.2.1/cv3.2.1.1/act/Mul))",
              "Dimensions": [
                1,
                64,
                20,
                20
              ],
              "Strides": [
                25600,
                1,
                1280,
                64
              ],
              "StrideOrder": [
                3,
                0,
                2,
                1
              ],
              "Datatype": "Float",
              "Format": "(NHWC) Channel major format"
            }
          ],
          "Constants": [],
          "Outputs": [
            {
              "Name": "/model.23/cv3.2/cv3.2.1/cv3.2.1.1/act/Mul_output_0",
              "Dimensions": [
                1,
                64,
                20,
                20
              ],
              "Strides": [
                25600,
                1,
                1280,
                64
              ],
              "StrideOrder": [
                3,
                0,
                2,
                1
              ],
              "Datatype": "Float",
              "Format": "(NHWC) Channel major format"
            }
          ],
          "TacticName": "__myl_MoveNegExpAddDivMul_0x522484a609d3df2f05b9d1ac24d5c81c",
          "StreamId": 0,
          "Metadata": "[ONNX Layer: /model.23/cv3.2/cv3.2.1/cv3.2.1.1/act/Sigmoid]\u001e[ONNX Layer: /model.23/cv3.2/cv3.2.1/cv3.2.1.1/act/Mul]"
        },
        {
          "Name": "/model.23/cv3.2/cv3.2.2/Conv",
          "LayerType": "CaskGemmConvolution",
          "Inputs": [
            {
              "Name": "/model.23/cv3.2/cv3.2.1/cv3.2.1.1/act/Mul_output_0",
              "Location": "Device",
              "Dimensions": [
                1,
                64,
                20,
                20
              ],
              "Datatype": "Float",
              "Format": "(NHWC) Channel major format"
            }
          ],
          "Outputs": [
            {
              "Name": "/model.23/cv3.2/cv3.2.2/Conv_output_0",
              "Location": "Device",
              "Dimensions": [
                1,
                1,
                20,
                20
              ],
              "Datatype": "Float",
              "Format": "(NHWC) Channel major format"
            }
          ],
          "ParameterType": "Convolution",
          "Kernel": [
            1,
            1
          ],
          "PaddingMode": "kEXPLICIT_ROUND_DOWN",
          "PrePadding": [
            0,
            0
          ],
          "PostPadding": [
            0,
            0
          ],
          "Stride": [
            1,
            1
          ],
          "Dilation": [
            1,
            1
          ],
          "OutMaps": 1,
          "Groups": 1,
          "Weights": {
            "Type": "Float",
            "Count": 64
          },
          "Bias": {
            "Type": "Float",
            "Count": 1
          },
          "HasBias": 1,
          "HasReLU": 0,
          "HasSparseWeights": 0,
          "HasDynamicFilter": 0,
          "HasDynamicBias": 0,
          "HasResidual": 0,
          "ConvXAsActInputIdx": -1,
          "BiasAsActInputIdx": -1,
          "ResAsActInputIdx": -1,
          "Activation": "NONE",
          "TacticName": "sm50_xmma_cublas_gemvx_f32f32_f32_f32_tn_n_int32_unit_m_launch_param32x4x4_strided_unit_stride",
          "TacticValue": "0x000000000002042a",
          "StreamId": 0,
          "Metadata": "[ONNX Layer: /model.23/cv3.2/cv3.2.2/Conv]"
        },
        {
          "Name": "Reformatting CopyNode for Input Tensor 0 to /model.23/Reshape_5",
          "LayerType": "NoOp",
          "Inputs": [
            {
              "Name": "/model.23/cv3.2/cv3.2.2/Conv_output_0",
              "Location": "Device",
              "Dimensions": [
                1,
                1,
                20,
                20
              ],
              "Datatype": "Float",
              "Format": "(NHWC) Channel major format"
            }
          ],
          "Outputs": [
            {
              "Name": "Reformatted Input Tensor 0 to /model.23/Reshape_5",
              "Location": "Device",
              "Dimensions": [
                1,
                1,
                20,
                20
              ],
              "Datatype": "Float",
              "Format": "(Linear) Row major linear format"
            }
          ],
          "TacticValue": "0x0000000000000000",
          "StreamId": 0,
          "Metadata": ""
        },
        {
          "Name": "/model.23/Reshape_5",
          "LayerType": "NoOp",
          "Inputs": [
            {
              "Name": "Reformatted Input Tensor 0 to /model.23/Reshape_5",
              "Location": "Device",
              "Dimensions": [
                1,
                1,
                20,
                20
              ],
              "Datatype": "Float",
              "Format": "(Linear) Row major linear format"
            }
          ],
          "Outputs": [
            {
              "Name": "/model.23/Reshape_5_copy_output",
              "Location": "Device",
              "Dimensions": [
                1,
                1,
                400
              ],
              "Datatype": "Float",
              "Format": "(Linear) Row major linear format"
            }
          ],
          "TacticValue": "0x0000000000000000",
          "StreamId": 0,
          "Metadata": "[ONNX Layer: /model.23/Reshape_5]"
        },
        {
          "Name": "/model.23/Reshape_5_copy_output",
          "LayerType": "Reformat",
          "Inputs": [
            {
              "Name": "/model.23/Reshape_5_copy_output",
              "Location": "Device",
              "Dimensions": [
                1,
                1,
                400
              ],
              "Datatype": "Float",
              "Format": "(Linear) Row major linear format"
            }
          ],
          "Outputs": [
            {
              "Name": "/model.23/Concat_1_output_0",
              "Location": "Device",
              "Dimensions": [
                1,
                1,
                400
              ],
              "Datatype": "Float",
              "Format": "(Linear) Row major linear format"
            }
          ],
          "ParameterType": "Reformat",
          "Origin": "CONCAT",
          "TacticValue": "0x00000000000003e8",
          "StreamId": 0,
          "Metadata": "[ONNX Layer: /model.23/Reshape_5]"
        },
        {
          "Name": "__myl_NegExpAddDiv_myl305_0",
          "LayerType": "kgen",
          "Inputs": [
            {
              "Name": "/model.23/Concat_1_output_0",
              "Dimensions": [
                1,
                1,
                8400
              ],
              "Strides": [
                8400,
                8400,
                1
              ],
              "StrideOrder": [
                2,
                1,
                0
              ],
              "Datatype": "Float",
              "Format": "(Linear) Row major linear format"
            }
          ],
          "Constants": [],
          "Outputs": [
            {
              "Name": "output0",
              "Dimensions": [
                1,
                1,
                8400
              ],
              "Strides": [
                42000,
                8400,
                1
              ],
              "StrideOrder": [
                2,
                1,
                0
              ],
              "Datatype": "Float",
              "Format": "(Linear) Row major linear format"
            }
          ],
          "TacticName": "__myl_NegExpAddDiv_0x650771c27f16d9c2d406895f613b5ecf",
          "StreamId": 0,
          "Metadata": "[ONNX Layer: /model.23/Sigmoid]"
        },
        {
          "Name": "__myl_Add_myl306_0",
          "LayerType": "kgen",
          "Inputs": [
            {
              "Name": "(Unnamed Layer* 378) [Constant]_output",
              "Dimensions": [
                1,
                2,
                8400
              ],
              "Strides": [
                16800,
                8400,
                1
              ],
              "StrideOrder": [
                2,
                1,
                0
              ],
              "Datatype": "Float",
              "Format": "(Linear) Row major linear format"
            },
            {
              "Name": "/model.23/dfl/Reshape_1_output_0",
              "Dimensions": [
                1,
                2,
                8400
              ],
              "Strides": [
                33600,
                8400,
                1
              ],
              "StrideOrder": [
                2,
                1,
                0
              ],
              "Datatype": "Float",
              "Format": "(Linear) Row major linear format"
            }
          ],
          "Constants": [],
          "Outputs": [
            {
              "Name": "/model.23/Add_1_output_0",
              "Dimensions": [
                1,
                2,
                8400
              ],
              "Strides": [
                16800,
                8400,
                1
              ],
              "StrideOrder": [
                2,
                1,
                0
              ],
              "Datatype": "Float",
              "Format": "(Linear) Row major linear format"
            }
          ],
          "TacticName": "__myl_Add_0x894d347e753b90a07e59aa869cfab3e9",
          "StreamId": 0,
          "Metadata": "[ONNX Layer: /model.23/Add_1]"
        },
        {
          "Name": "__myl_Sub_myl307_0",
          "LayerType": "kgen",
          "Inputs": [
            {
              "Name": "(Unnamed Layer* 376) [Constant]_output",
              "Dimensions": [
                1,
                2,
                8400
              ],
              "Strides": [
                16800,
                8400,
                1
              ],
              "StrideOrder": [
                2,
                1,
                0
              ],
              "Datatype": "Float",
              "Format": "(Linear) Row major linear format"
            },
            {
              "Name": "/model.23/dfl/Reshape_1_output_0",
              "Dimensions": [
                1,
                2,
                8400
              ],
              "Strides": [
                33600,
                8400,
                1
              ],
              "StrideOrder": [
                2,
                1,
                0
              ],
              "Datatype": "Float",
              "Format": "(Linear) Row major linear format"
            }
          ],
          "Constants": [],
          "Outputs": [
            {
              "Name": "/model.23/Sub_output_0",
              "Dimensions": [
                1,
                2,
                8400
              ],
              "Strides": [
                16800,
                8400,
                1
              ],
              "StrideOrder": [
                2,
                1,
                0
              ],
              "Datatype": "Float",
              "Format": "(Linear) Row major linear format"
            }
          ],
          "TacticName": "__myl_Sub_0x731bcc4c19e3324562e1964d63183bf1",
          "StreamId": 0,
          "Metadata": "[ONNX Layer: /model.23/Sub]"
        },
        {
          "Name": "__myl_Sub_myl308_0",
          "LayerType": "kgen",
          "Inputs": [
            {
              "Name": "/model.23/Add_1_output_0",
              "Dimensions": [
                1,
                2,
                8400
              ],
              "Strides": [
                16800,
                8400,
                1
              ],
              "StrideOrder": [
                2,
                1,
                0
              ],
              "Datatype": "Float",
              "Format": "(Linear) Row major linear format"
            },
            {
              "Name": "/model.23/Sub_output_0",
              "Dimensions": [
                1,
                2,
                8400
              ],
              "Strides": [
                16800,
                8400,
                1
              ],
              "StrideOrder": [
                2,
                1,
                0
              ],
              "Datatype": "Float",
              "Format": "(Linear) Row major linear format"
            }
          ],
          "Constants": [],
          "Outputs": [
            {
              "Name": "/model.23/Concat_2_output_0",
              "Dimensions": [
                1,
                2,
                8400
              ],
              "Strides": [
                33600,
                8400,
                1
              ],
              "StrideOrder": [
                2,
                1,
                0
              ],
              "Datatype": "Float",
              "Format": "(Linear) Row major linear format"
            }
          ],
          "TacticName": "__myl_Sub_0x56179a01ff549012306d1e12faf9e096",
          "StreamId": 0,
          "Metadata": "[ONNX Layer: /model.23/Sub_1]"
        },
        {
          "Name": "__myl_AddDiv_myl309_0",
          "LayerType": "kgen",
          "Inputs": [
            {
              "Name": "/model.23/Sub_output_0",
              "Dimensions": [
                1,
                2,
                8400
              ],
              "Strides": [
                16800,
                8400,
                1
              ],
              "StrideOrder": [
                2,
                1,
                0
              ],
              "Datatype": "Float",
              "Format": "(Linear) Row major linear format"
            },
            {
              "Name": "/model.23/Add_1_output_0",
              "Dimensions": [
                1,
                2,
                8400
              ],
              "Strides": [
                16800,
                8400,
                1
              ],
              "StrideOrder": [
                2,
                1,
                0
              ],
              "Datatype": "Float",
              "Format": "(Linear) Row major linear format"
            }
          ],
          "Constants": [],
          "Outputs": [
            {
              "Name": "/model.23/Div_1_output_0",
              "Dimensions": [
                1,
                2,
                8400
              ],
              "Strides": [
                16800,
                8400,
                1
              ],
              "StrideOrder": [
                2,
                1,
                0
              ],
              "Datatype": "Float",
              "Format": "(Linear) Row major linear format"
            }
          ],
          "TacticName": "__myl_AddDiv_0x44aac013034bc62021cf39bc9063a9c0",
          "StreamId": 0,
          "Metadata": "[ONNX Layer: /model.23/Add_2]\u001e[ONNX Layer: /model.23/Div_1]"
        },
        {
          "Name": "/model.23/Div_1_output_0 copy",
          "LayerType": "Reformat",
          "Inputs": [
            {
              "Name": "/model.23/Div_1_output_0",
              "Location": "Device",
              "Dimensions": [
                1,
                2,
                8400
              ],
              "Datatype": "Float",
              "Format": "(Linear) Row major linear format"
            }
          ],
          "Outputs": [
            {
              "Name": "/model.23/Concat_2_output_0",
              "Location": "Device",
              "Dimensions": [
                1,
                2,
                8400
              ],
              "Datatype": "Float",
              "Format": "(Linear) Row major linear format"
            }
          ],
          "ParameterType": "Reformat",
          "Origin": "CONCAT",
          "TacticValue": "0x0000000000000000",
          "StreamId": 0,
          "Metadata": "[ONNX Layer: /model.23/Concat_2]"
        },
        {
          "Name": "/model.23/Constant_15_output_0 + ONNXTRT_Broadcast_109",
          "LayerType": "Constant",
          "Inputs": [],
          "Outputs": [
            {
              "Name": "(Unnamed Layer* 387) [Shuffle]_output",
              "Location": "Device",
              "Dimensions": [
                1,
                1,
                8400
              ],
              "Datatype": "Float",
              "Format": "(Linear) Row major linear format"
            }
          ],
          "ParameterType": "Constant",
          "weights": {
            "Type": "Float",
            "Count": 8400
          },
          "dimensions": [
            1,
            1,
            8400
          ],
          "TacticValue": "0x0000000000000000",
          "StreamId": 0,
          "Metadata": ""
        },
        {
          "Name": "__myl_Mul_myl312_0",
          "LayerType": "kgen",
          "Inputs": [
            {
              "Name": "/model.23/Concat_2_output_0",
              "Dimensions": [
                1,
                4,
                8400
              ],
              "Strides": [
                33600,
                8400,
                1
              ],
              "StrideOrder": [
                2,
                1,
                0
              ],
              "Datatype": "Float",
              "Format": "(Linear) Row major linear format"
            },
            {
              "Name": "(Unnamed Layer* 387) [Shuffle]_output",
              "Dimensions": [
                1,
                1,
                8400
              ],
              "Strides": [
                8400,
                8400,
                1
              ],
              "StrideOrder": [
                2,
                1,
                0
              ],
              "Datatype": "Float",
              "Format": "(Linear) Row major linear format"
            }
          ],
          "Constants": [],
          "Outputs": [
            {
              "Name": "/model.23/Mul_2_output_0",
              "Dimensions": [
                1,
                4,
                8400
              ],
              "Strides": [
                33600,
                8400,
                1
              ],
              "StrideOrder": [
                2,
                1,
                0
              ],
              "Datatype": "Float",
              "Format": "(Linear) Row major linear format"
            }
          ],
          "TacticName": "__myl_Mul_0xc146d30fe38d3549b19c4c9ecc2a97c4",
          "StreamId": 0,
          "Metadata": "[ONNX Layer: /model.23/Mul_2]"
        },
        {
          "Name": "/model.23/Mul_2_output_0 copy",
          "LayerType": "Reformat",
          "Inputs": [
            {
              "Name": "/model.23/Mul_2_output_0",
              "Location": "Device",
              "Dimensions": [
                1,
                4,
                8400
              ],
              "Datatype": "Float",
              "Format": "(Linear) Row major linear format"
            }
          ],
          "Outputs": [
            {
              "Name": "output0",
              "Location": "Device",
              "Dimensions": [
                1,
                4,
                8400
              ],
              "Datatype": "Float",
              "Format": "(Linear) Row major linear format"
            }
          ],
          "ParameterType": "Reformat",
          "Origin": "CONCAT",
          "TacticValue": "0x00000000000003e8",
          "StreamId": 0,
          "Metadata": "[ONNX Layer: /model.23/Concat_3]"
        }
      ],
      "I/O Tensors": [
        {
          "Name": "images",
          "IOMode": "Input",
          "DataType": "Float",
          "Dimensions": [
            1,
            3,
            640,
            640
          ],
          "Location": "Device",
          "IsShapeInferenceIO": false,
          "ProfileInfo": [
            {
              "MinShape": [
                1,
                3,
                640,
                640
              ],
              "OptShape": [
                1,
                3,
                640,
                640
              ],
              "MaxShape": [
                1,
                3,
                640,
                640
              ],
              "Format": "Row major linear FP32 format (kLINEAR)"
            }
          ]
        },
        {
          "Name": "output0",
          "IOMode": "Output",
          "DataType": "Float",
          "Dimensions": [
            1,
            5,
            8400
          ],
          "Location": "Device",
          "IsShapeInferenceIO": false,
          "ProfileInfo": [
            {
              "Format": "Row major linear FP32 format (kLINEAR)"
            }
          ]
        }
      ],
      "Engine Metadata": {
        "Multi-Device": "Disabled"
      }
    },
    "error": null
  }
}